new_tflite_model.tflite (tflite, 978816 bytes, 140 tensors)

model/batch_normalization_1/FusedBatchNormV3 f4 [32]
0.2951098 0.12209305 -0.22256282 0.4253708 0.62243754 -0.3628746 0.062761396 -0.03481543
0.032274008 0.50468004 0.81429315 0.41012192 0.43247208 0.47354904 0.43390104 0.15474662
0.12316771 -0.21926898 0.118348464 0.49418885 -0.46394807 0.65458035 0.25300464 -1.0602983
0.09492624 0.4675951 -0.23482601 -0.7608143 0.13110793 0.09299463 0.36238077 0.0211557
00000000: a218 973e ec0b fa3d 82e7 63be 34ca d93e
00000010: 1158 1f3f b3ca b9be 0c89 803d a09a 0ebd
00000020: c031 043d b632 013f 8475 503f 80fb d13e
00000030: fb6c dd3e 0575 f23e 4728 de3e e675 1e3e
00000040: 5a3f fc3d 0c88 60be ae60 f23d 5206 fd3e
00000050: 9a8a edbe 9492 273f d389 813e dbb7 87bf
00000060: b068 c23d a068 ef3e 3b76 70be bac4 42bf
00000070: 2841 063e f873 be3d f989 b93e b84e ad3c

model/batch_normalization_4/FusedBatchNormV3 f4 [96]
0.36022067 0.01948712 0.40275365 -0.19105077 -0.097935036 -0.09269574 -0.951532 0.51961607
0.3246885 0.18889455 -0.10845965 0.32894117 -0.046238437 0.20545886 -1.3472896 0.05766593
0.23497872 0.756825 0.26133394 -0.2082688 0.021669358 0.4805131 -0.5733369 0.3651763
-0.5100013 0.05098363 -0.029363945 0.40443626 0.11292647 0.17418325 0.34373295 0.22618994
0.26936698 -0.53013897 0.67919886 0.8220055 0.2091841 0.8000077 0.491376 0.08190954
-0.0736746 0.58118874 -0.6655207 0.07018122 -0.21490711 0.33911455 -1.0542924 -0.6005762
-0.64828277 1.0073007 0.67223895 0.23551396 -0.20287764 0.08408095 0.2865535 -0.34992647
0.55991405 0.1968194 0.16126058 0.2599574 0.2936818 -0.6468547 -0.033045337 -0.087399915
-1.0076103 0.57187164 -0.35934025 0.25895208 0.3734152 -0.40759346 0.57759756 -0.22709051
-0.386653 0.6516176 0.34745133 0.4050544 0.41531992 0.121072516 0.06871633 -0.55497736
0.5609603 0.2146968 0.10709214 0.010322072 0.739438 -0.078839816 -0.11738526 -0.026101606
0.16056502 -0.6209296 -0.6242651 -0.06054321 -0.022146396 0.4222328 -0.7946991 0.4324919
00000000: d86e b83e 74a3 9f3c ba35 ce3e d0a2 43be
00000010: 2a92 c8bd 44d7 bdbd 9a97 73bf 8f05 053f
00000020: 923d a63e 936d 413e 1820 debd fa6a a83e
00000030: 8464 3dbd cf63 523e fc73 acbf 1c33 6c3d
00000040: 439e 703e 48bf 413f 90cd 853e 6b44 55be
00000050: f083 b13c d005 f63e 35c6 12bf 63f8 ba3e
00000060: 728f 02bf 36d4 503d a88c f0bc 4512 cf3e
00000070: fe45 e73d 185d 323e c4fd af3e 569e 673e
00000080: 78ea 893e 30b7 07bf fadf 2d3f f46e 523f
00000090: 5b34 563e 4ecd 4c3f a395 fb3e 30c0 a73d
000000a0: b5e2 96bd c9c8 143f 915f 2abf 2cbb 8f3d
000000b0: 9c10 5cbe 6ca0 ad3e 0ef3 86bf 5dbf 19bf
000000c0: dcf5 25bf 3bef 803f da17 2c3f 922a 713e
000000d0: 28bf 4fbe a232 ac3d 24b7 923e 9029 b3be
000000e0: 8756 0f3f 068b 493e 7e21 253e 2319 853e
000000f0: 765d 963e 4598 25bf 8c5a 07bd bafe b2bd
00000100: 60f9 80bf 2e66 123f 72fb b7be 5e95 843e
00000110: 4730 bf3e 17b0 d0be 6fdd 133f 6a8a 68be
00000120: 62f7 c5be 69d0 263f 24e5 b13e 4a63 cf3e
00000130: d0a4 d43e def4 f73d 26bb 8c3d ff12 0ebf
00000140: 189b 0f3f 7ad9 5b3e 2053 db3d e81d 293c
00000150: cf4b 3d3f c576 a1bd af67 f0bd 09d3 d5bc
00000160: 286b 243e 3ef5 1ebf d6cf 1fbf 28fc 77bd
00000170: 5c6c b5bc e62e d83e 6671 4bbf 946f dd3e

model/batch_normalization_7/FusedBatchNormV3 f4 [144]
0.009764861 0.6059178 -0.097647995 0.38547003 -0.30929327 0.1083137 0.6987268 0.28776783
1.4737606 1.7229841 -0.80421966 -0.36684066 1.4781024 0.4125294 -0.03502714 -1.1003504
0.10504876 -0.86503994 0.8877678 0.41759673 0.06299341 -0.021441191 -1.5206884 1.6442603
1.4726517 -0.63003904 -1.3410432 0.12815124 -0.5592169 0.9463892 0.44450563 0.16391543
-1.1754062 -1.2198341 0.051033407 -0.19425476 0.5246388 -1.0139906 0.8794029 0.29364678
0.025150284 0.43921888 1.3898344 -0.23565802 -0.30098486 0.47510684 -1.1237442 0.005759001
0.020486295 0.90937793 -0.30809426 1.1171691 0.96490645 0.13592507 0.86565346 0.45569494
-0.17791319 -0.12284429 -0.3550154 0.48018798 -1.3917174 -0.021320939 -0.19396992 -1.095779
-0.23604357 -0.62255293 -0.43423793 -0.9944192 -0.2594954 -0.63746095 0.03813207 0.3024093
-0.66623944 -0.61105096 0.09421998 0.15863715 -0.5953845 -0.266262 0.6568446 -0.018806428
0.9011596 0.6399416 -0.58745086 0.7969455 0.3273849 -0.55194324 -0.18551666 -0.1264338
-0.16285163 0.16053838 -1.36104 0.6085944 -0.033531517 -0.069733754 0.9058335 0.967439
-0.99646866 -0.06454381 -0.11704603 0.29504484 -0.3843882 -1.0689763 1.7037685 0.58786553
-0.47763705 -0.0029958785 -0.21936364 0.013564117 -0.6785444 -0.21486577 -0.4770505 -0.2944097
-0.75797516 0.016211867 0.100218594 0.04516816 -0.30795068 -0.3535959 -0.34514824 -0.22644548
-1.4597623 -1.2808776 -0.108671896 -1.4427195 -0.09093502 -0.2768638 0.36446866 -0.015481368
-0.16621594 1.3529452 1.1266832 0.46112317 -0.008959983 -0.14950366 -0.60369784 0.85927355
-1.7425826 0.08256066 -0.10558088 1.8557462 -0.14036262 -0.2982278 0.581491 0.77758366
00000000: ccfc 1f3c 6e1d 1b3f acfb c7bd 545c c53e
00000010: b05b 9ebe 93d3 dd3d c2df 323f 4e56 933e
00000020: 30a4 bc3f be8a dc3f 57e1 4dbf 8ad2 bbbe
00000030: 7632 bd3f 0e37 d33e 9e78 0fbd 48d8 8cbf
00000040: ce23 d73d 4273 5dbf c044 633f 3dcf d53e
00000050: b002 813d 70a5 afbc eba5 c2bf 1f77 d23f
00000060: da7f bc3f 3d4a 21bf 4ea7 abbf 143a 033e
00000070: d728 0fbf 9046 723f 3e96 e33e 72d9 273e
00000080: b673 96bf 8623 9cbf 6808 513d b8ea 46be
00000090: ba4e 063f 72ca 81bf 8c20 613f df58 963e
000000a0: f807 ce3c 4ce1 e03e 18e6 b13f 5650 71be
000000b0: b01a 9abe 3441 f33e dad6 8fbf 00b6 bc3b
000000c0: e0d2 a73c fecc 683f 88be 9dbe 66ff 8e3f
000000d0: 1c04 773f f12f 0b3e 779b 5d3f d950 e93e
000000e0: e02e 36be ca95 fbbd 94c4 b5be 33db f53e
000000f0: cc23 b2bf 40a9 aebc 0da0 46be 7c42 8cbf
00000100: 68b5 71be a15f 1fbf 6f54 debe 4292 7ebf
00000110: 95dc 84be a430 23bf 6030 1c3d 64d5 9a3e
00000120: ab8e 2abf d66d 1cbf 68f6 c03d c771 223e
00000130: 1e6b 18bf 7e53 88be f826 283f f00f 9abc
00000140: 65b2 663f 36d3 233f 2e63 16bf 9f04 4c3f
00000150: fe9e a73e 274c 0dbf 14f8 3dbe dd77 01be
00000160: 94c2 26be 2c64 243e 8f36 aebf d8cc 1b3f
00000170: 5858 09bd 92d0 8ebd b4e4 673f 15aa 773f
00000180: 9218 7fbf 8c2f 84bd d4b5 efbd 1e10 973e
00000190: 88ce c4be 37d4 88bf 1615 da3f 5b7e 163f
000001a0: d88c f4be 8056 44bb dda0 60be 083c 5e3c
000001b0: 16b5 2dbf c605 5cbe f73f f4be debc 96be
000001c0: a90a 42bf c0ce 843c 683f cd3d 4002 393d
000001d0: b6ab 9dbe 860a b5be 45b7 b0be 53e1 67be
000001e0: 7ed9 babf ccf3 a3bf 5f8f debd 08ab b8bf
000001f0: 243c babd 18c1 8dbe a39b ba3e 90a5 7dbc
00000200: 8334 2abe 4f2d ad3f 2837 903f 5618 ec3e
00000210: e4cc 12bc 7d17 19be f18b 1abf 5af9 5b3f
00000220: f20c dfbf 9015 a93d ca3a d8bd 1789 ed3f
00000230: 38bb 0fbe 50b1 98be 98dc 143f b90f 473f

model/batch_normalization_10/FusedBatchNormV3 f4 [144]
0.60360825 -0.60777676 -0.2727436 -0.36739075 0.33033186 -0.9600215 0.38772324 0.78617394
0.5320649 0.91564 -0.28218818 -0.063723475 -0.32047194 -0.044149276 -0.56524503 1.0287495
-0.17497566 0.18391806 0.031928122 -0.2919888 -0.71969676 -0.2966027 0.6403879 -0.31663698
1.8789625 -0.4198005 0.2046979 -0.17529708 1.7377603 0.27384067 0.7718322 0.045270897
-0.16275598 -0.7621926 -0.08750094 -1.0832982 -0.3494018 -0.23154946 0.079939604 0.44366717
1.9204347 -0.21139503 0.2084368 -0.3324632 -0.45115647 -0.0046747625 1.0041231 -0.58756363
-1.0335597 -0.28488156 0.8041606 0.2063016 -0.33870587 1.5120265 -0.10130939 -1.0551956
-0.16332147 -0.20008677 -0.61476237 -0.37990826 -0.38879842 -0.20611233 0.24449334 -0.79156196
0.29546404 -0.0968132 -0.23178416 1.1432565 -0.11747403 0.5958362 -0.0009185225 0.40905994
-0.45541462 0.25928617 -0.34339875 -0.10079567 0.39688417 -0.06823784 0.018787444 1.0568064
-1.1037989 0.5074648 -0.79712987 0.80551857 -0.08579616 -0.16109036 0.300622 0.1081166
-0.4013151 -0.8413733 0.52378374 0.85967076 0.2174949 0.36419672 -0.70467854 1.0947597
0.54366934 -0.8394495 0.12982532 0.5769233 -0.069793664 0.39286578 -0.16836177 0.14719398
-0.18474643 -0.24527207 -0.39518315 -0.6828957 -0.6075623 0.3066556 -0.81950384 -0.37364075
-0.12910502 0.7762872 -0.03855735 -1.0286417 -0.2911131 -0.023424946 0.25227332 0.55943
-0.45542824 -0.83695483 -0.17619993 0.97111976 -0.22363335 -0.78929466 -0.2690879 -0.11552018
0.29738858 1.1542681 -0.12637019 0.21397218 0.17667767 -0.77860725 -0.35299414 0.08851664
-0.8360077 0.8221135 0.94972825 -0.01746744 -0.09911725 -1.0246768 -0.06605354 -0.2684414
00000000: 1286 1a3f 4297 1bbf 0da5 8bbe a41a bcbe
00000010: 4221 a93e f8c3 75bf a983 c63e b242 493f
00000020: 6835 083f 6267 6a3f f87a 90be 7481 82bd
00000030: e614 a4be dfd5 34bd e6b3 10bf 10ae 833f
00000040: d22c 33be 0455 3c3e 10c7 023d 8e7f 95be
00000050: 0c3e 38bf 4fdc 97be 76f0 233f 3e1e a2be
00000060: d881 f03f 17f0 d6be 549c 513e 1481 33be
00000070: ee6e de3f d834 8c3e cc96 453f fa6d 393d
00000080: 81a9 26be 0e1f 43bf b133 b3bd 84a9 8abf
00000090: cbe4 b2be 4d1b 6dbe 60b7 a33d 5828 e33e
000000a0: ced0 f53f f077 58be 7570 553e 9e38 aabe
000000b0: fbfd e6be c02e 99bb 1b87 803f 926a 16bf
000000c0: af4b 84bf ffdb 91be 78dd 4d3f ba40 533e
000000d0: db6a adbe 168a c13f 4c7b cfbd a610 87bf
000000e0: be3d 27be 8ce3 4cbe 1161 1dbf 5683 c2be
000000f0: 9610 c7be 1c0f 53be 765c 7a3e cea3 4abf
00000100: 1047 973e 0046 c6bd d458 6dbe 3b56 923f
00000110: 3996 f0bd b988 183f 00c9 70ba 4e70 d13e
00000120: 1b2c e9be 28c1 843e f6d1 afbe f66d cebd
00000130: 6734 cb3e 48c0 8bbd 20e8 993c 6f45 873f
00000140: 4849 8dbf 37e9 013f b410 4cbf 7736 4e3f
00000150: e6b5 afbd dff4 24be 20eb 993e 3c6c dd3d
00000160: 2c79 cdbe 3e64 57bf b116 063f 6213 5c3f
00000170: fcb6 5e3e fe77 ba3e d065 34bf 1621 8c3f
00000180: ea2d 0b3f 2ae6 56bf eef0 043e 3fb1 133f
00000190: fbef 8ebd b425 c93e 0767 2cbe 05ba 163e
000001a0: 2b2e 3dbe 9a28 7bbe 7255 cabe 41d2 2ebf
000001b0: 3489 1bbf f601 9d3e 01cb 51bf d74d bfbe
000001c0: 1b34 04be c2ba 463f 50ee 1dbd 88aa 83bf
000001d0: c70c 95be ace5 bfbc f829 813e ce36 0f3f
000001e0: e42d e9be ac42 56bf c16d 34be 4e9b 783f
000001f0: 2400 65be 370f 4abf e4c5 89be d895 ecbd
00000200: 5143 983e 0fbf 933f 3067 01be 861b 5b3e
00000210: feea 343e ce52 47bf a6bb b4be 3648 b53d
00000220: 9a04 56bf 0876 523f 6421 733f e017 8fbc
00000230: fcfd cabd 9c28 83bf 1447 87bd 2771 89be

model/batch_normalization_13/FusedBatchNormV3 f4 [168]
0.7194891 0.0158007 2.043712 1.366449 -0.6322073 0.3438265 -0.27715918 -1.1396598
0.83040786 0.9095676 -0.83509356 -0.09811245 0.3505927 1.2493663 -0.0058056116 0.6677507
-0.052029848 -1.0591178 1.5435257 0.2951789 0.934921 1.2922541 0.7981671 1.2832136
0.039331168 -0.17125851 0.33453962 1.1387228 -0.7945039 0.2683009 -0.27499974 0.036771446
-1.1405466 0.8297101 0.110265285 0.83935255 -0.43295074 -0.16799057 -0.39885128 -0.4306506
1.098387 0.8797906 0.53391075 0.29923272 -0.35400257 -0.05452345 -0.62832654 -0.74340004
-0.33732897 -0.2116426 -0.13175553 1.1586108 1.1737182 -0.080487415 0.014839172 1.4172914
0.07109347 -0.241025 -1.0188057 0.6523875 -0.67852783 1.8093547 -0.7642109 2.7251549
-0.49016514 0.3782554 0.10926494 0.016468763 0.9331455 -0.3981613 0.5175608 0.24189901
-0.38404623 -0.12518296 0.76701987 0.10861255 0.16694617 -0.6643166 0.8131032 1.05023
0.77586955 -0.94678926 0.82372254 -0.50051504 -0.26016515 1.1096759 -0.3402744 0.9879396
-0.91164416 0.64058435 -0.56423736 -0.6804665 -0.13454267 0.16631722 1.4065089 1.20068
0.24461508 -0.51351464 -0.45783532 -0.47016987 -0.5694143 -1.0090168 0.5797926 -0.044670045
0.43566525 -0.10744004 -0.81321716 1.0938274 -0.086702526 0.6554009 -0.6251188 0.7443373
-0.21845323 0.835271 -0.43943968 0.554084 1.588011 -0.67585075 -0.1355358 0.36669332
0.3051152 1.16402 -0.40655643 -0.36252016 -0.30252853 0.107878625 -0.85025305 -0.496885
-0.0033967495 2.534565 -0.71377903 -0.23247613 0.6955501 1.5181434 -0.07365674 0.97039664
0.117072865 -0.17915994 -0.009291768 -0.85336006 -0.4265953 -0.11092208 -0.89237887 1.1973695
-0.48109964 -0.51235926 -0.10757238 0.27075714 0.72766864 1.3924692 -0.41292587 1.7100278
1.7597436 0.005647257 1.2779522 -0.7659699 1.0985402 1.2081072 -0.99030674 -0.4215331
0.9088488 -0.16585064 1.1093272 1.2001226 0.12514375 1.1561779 0.24757364 -0.017922912
00000000: 7030 383f 7870 813c 2dcc 0240 cde7 ae3f
00000010: 56d8 21bf 070a b03e cfe7 8dbe 5fe0 91bf
00000020: 9c95 543f 6cd9 683f b1c8 55bf 2eef c8bd
00000030: e380 b33e 3ceb 9f3f 003d bebb b6f1 2a3f
00000040: 401d 55bd 2c91 87bf 4092 c53f b021 973e
00000050: fc56 6f3f 9568 a53f ae54 4c3f 5840 a43f
00000060: b819 213d 645e 2fbe c748 ab3e abc1 913f
00000070: 9c64 4bbf bc5e 893e c4cc 8cbe a89d 163d
00000080: 6efd 91bf e267 543f c4d2 e13d cfdf 563f
00000090: b8ab ddbe b805 2cbe 3c36 ccbe 3c7e dcbe
000000a0: f297 8c3f f539 613f 60ae 083f 0835 993e
000000b0: d33f b5be fb53 5fbd 02da 20bf 774f 3ebf
000000c0: 62b6 acbe d6b8 58be ecea 06be 5c4d 943f
000000d0: 663c 963f 96d6 a4bd 0020 733c ce69 b53f
000000e0: 7499 913d 42cf 76be 3a68 82bf de02 273f
000000f0: 00b4 2dbf ef98 e73f 53a3 43bf f068 2e40
00000100: edf6 fabe b1aa c13e 4cc6 df3d 80e9 863c
00000110: a0e2 6e3f ccdb cbbe dd7e 043f 60b4 773e
00000120: b5a1 c4be f62f 00be 6a5b 443f 4270 de3d
00000130: f0f3 2a3e a710 2abf 8827 503f f06d 863f
00000140: 639f 463f c860 72bf 7bdf 523f c121 00bf
00000150: 5e34 85be dc09 8e3f 7238 aebe 9ce9 7c3f
00000160: 8361 69bf 56fd 233f dc71 10bf 0d33 2ebf
00000170: 8ec5 09be 104f 2a3e 7c08 b43f e2af 993f
00000180: 607c 7a3e b275 03bf 6469 eabe 1bba f0be
00000190: 23c5 11bf 7627 81bf 4a6d 143f f0f7 36bd
000001a0: 840f df3e 8609 dcbd 002f 50bf 8902 8c3f
000001b0: 1891 b1bd 5ac8 273f c907 20bf e48c 3e3f
000001c0: 34b2 5fbe 52d4 553f 3dfe e0be 73d8 0d3f
000001d0: f243 cb3f 8e04 2dbf e6c9 0abe 3abf bb3e
000001e0: 0f38 9c3e 9bfe 943f 2a28 d0be 3e9c b9be
000001f0: 05e5 9abe 78ef dc3d 2faa 59bf b667 febe
00000200: 009c 5ebb 5036 2240 39ba 36bf 390e 6ebe
00000210: 920f 323f 8652 c23f 58d9 96bd ea6b 783f
00000220: e6c3 ef3d b475 37be 803c 18bc ce75 5abf
00000230: b36a dabe 1e2b e3bd f172 64bf 6743 993f
00000240: b152 f6be fa29 03bf e84e dcbd aea0 8a3e
00000250: 7e48 3a3f 6e3c b23f 056b d3be 31e2 da3f
00000260: 473f e13f a00c b93b f093 a33f 9a16 44bf
00000270: f79c 8c3f 42a3 9a3f be84 7dbf 30d3 d7be
00000280: 51aa 683f c0d4 29be 6ffe 8d3f 9e9d 993f
00000290: af25 003e a3fd 933f f283 7d3e 12d3 92bc

model/batch_normalization_16/FusedBatchNormV3 f4 [168]
0.60779667 1.0794129 0.3733124 0.0074213147 0.4238263 6.948895 -0.3497831 -0.085329115
1.2380717 0.9545338 -0.12228127 -0.10899082 4.9346433 -0.24593711 -0.072098844 -0.25794452
-0.09012805 0.0781209 -0.09143394 -0.37403947 0.6647091 1.1658695 0.72769916 -0.2561099
-0.3164671 -0.99995786 -0.59136236 0.39807272 0.011296511 -0.9823649 -0.15976451 -0.35169166
0.43853173 -0.15167159 1.3315967 -0.10916671 0.014110945 -0.29896516 0.108442485 0.5212584
-0.78163236 -0.7301599 1.0162002 -0.35122114 -0.7486261 1.2931209 1.4484775 0.012118839
0.09177895 0.5735055 -0.7366471 -0.42403424 8.0351305 -0.13222176 1.4754372 -0.21557546
-0.5195087 0.30599236 -0.11221222 1.7764115 1.0823768 -0.8250688 1.7784116 -0.19016813
0.0900867 -0.8463276 -0.23145306 -0.5194864 0.90636003 2.1103992 0.6691544 0.84828997
0.6412828 2.0632222 -0.40838757 -0.3401351 -0.057694294 -0.6982865 0.6831964 0.11088249
1.9666841 0.2756822 -0.15534893 -0.31992805 1.3083763 0.84075487 0.5948853 -1.06303
-0.8743916 -0.42782873 0.7287902 -0.7202121 0.9581461 1.3190129 -0.21075688 0.77629316
0.098342925 -0.42744195 0.093282446 0.6230681 -0.28286538 -0.09877159 -0.0692431 0.8712341
-0.8741214 0.9648098 0.78026605 0.01186958 -0.16501336 -0.2346816 -0.50414443 -0.32268658
-0.4540555 1.5647894 1.4012767 1.447931 0.7691071 -0.09778462 1.1888359 -0.20750901
-0.16009617 0.9523564 0.017620608 0.108531594 0.069028854 -0.07123107 0.114751786 -0.6541336
-0.13151276 9.081865 -0.015491962 0.40521848 0.0076309443 -0.27302665 -0.019292235 0.46082586
-0.10614586 -0.016283486 1.7129016 5.9658117 1.9252653 1.3070644 1.0659803 0.19812894
-0.18146625 0.3766195 -0.7672335 -0.70067614 0.5526627 0.41237032 -0.6746466 -0.84970355
-0.13090056 -0.19791758 0.10394953 -0.739638 1.2256898 -0.34636578 0.6208301 0.08083892
0.83813316 -0.073367104 0.5099597 -0.10013378 1.523795 0.19065467 -0.0870492 2.1126244
00000000: 9098 1b3f 342a 8a3f ce22 bf3e 802e f33b
00000010: c3ff d83e 595d de40 c516 b3be 08c1 aebd
00000020: 2279 9e3f 545c 743f 9a6e fabd 9436 dfbd
00000030: 99e8 9d40 f0d6 7bbe 8fa8 93bd 4e11 84be
00000040: 0e95 b8bd dafd 9f3d b841 bbbd 1a82 bfbe
00000050: 602a 2a3f 363b 953f 7e4a 3a3f d620 83be
00000060: fa07 a2be 3dfd 7fbf 8663 17bf 30d0 cb3e
00000070: 0015 393c 447c 7bbf 4f99 23be ee10 b4be
00000080: 3b87 e03e cc4f 1bbe c371 aa3f cc92 dfbd
00000090: 9831 673c f611 99be 1817 de3d 3171 053f
000000a0: 0f19 48bf c2eb 3abf d912 823f 42d3 b3be
000000b0: f6a5 3fbf fc84 a53f b667 b93f 188e 463c
000000c0: 9af6 bb3d 42d1 123f e894 3cbf 041b d9be
000000d0: e58f 0041 2465 07be 20db bc3f d0bf 5cbe
000000e0: 86fe 04bf 08ab 9c3e 85cf e5bd 7461 e33f
000000f0: 538b 8a3f b537 53bf fea2 e33f 6fbb 42be
00000100: 607f b83d eda8 58bf 0802 6dbe 10fd 04bf
00000110: 3607 683f c810 0740 b44d 2b3f 8829 593f
00000120: 1c2b 243f d50b 0440 2d18 d1be 3026 aebe
00000130: da50 6cbd e7c2 32bf f6e5 2e3f 5c16 e33d
00000140: 4ebc fb3f 3826 8d3e ca13 1fbe 9ccd a3be
00000150: e078 a73f b63b 573f 674a 183f 5e11 88bf
00000160: 21d8 5fbf 5e0c dbbe ff91 3a3f d25f 38bf
00000170: 1049 753f 6ad5 a83f a7d0 57be 26bb 463f
00000180: 0468 c93d acd9 dabe de0a bf3d 6481 1f3f
00000190: bbd3 90be c248 cabd 54cf 8dbd 3309 5f3f
000001a0: 6cc6 5fbf c6fd 763f 84bf 473f a078 423c
000001b0: 43f9 28be 6050 70be 9c0f 01bf 2d37 a5be
000001c0: f679 e8be 054b c83f 095d b33f ce55 b93f
000001d0: 34e4 443f 4e43 c8bd c62b 983f 3e7d 54be
000001e0: 40f0 23be a1cd 733f 1859 903c d045 de3d
000001f0: 005f 8d3d 98e1 91bd fc02 eb3d 4d75 27bf
00000200: 48ab 06be 524f 1141 00d2 7dbc cc78 cf3e
00000210: 000d fa3b 26ca 8bbe c00a 9ebc 5ef1 eb3e
00000220: 0063 d9bd f264 85bc 5c40 db3f eee7 be40
00000230: 186f f63f e34d a73f 0b72 883f 50e2 4a3e
00000240: 4ad2 39be 45d4 c03e 6a69 44bf 835f 33bf
00000250: 4d7b 0d3f 3422 d33e a4b5 2cbf 2c86 59bf
00000260: cc0a 06be e8aa 4abe 7ee3 d43d ea58 3dbf
00000270: 67e3 9c3f db56 b1be b9ee 1e3f e08e a53d
00000280: e58f 563f 7e41 96bd b88c 023f f012 cdbd
00000290: b70b c33f fa3a 433e da46 b2bd 3d35 0740

model/batch_normalization_19/FusedBatchNormV3 f4 [216]
-0.08687484 1.4441159 0.9983852 0.5348449 0.8595092 -0.0030469596 -1.0605735 -0.6524398
0.04195988 -0.19497174 0.86192113 2.0164614 -0.89210516 -0.4876587 0.3493865 -0.4031342
-0.1149338 -0.35951 1.4679152 -0.51026 0.45898604 0.3491829 1.4880215 -0.32430962
-0.8963628 -0.3532405 -0.7135334 0.6843185 -0.8847553 0.6593727 0.6944226 -0.60411763
-0.478817 -0.7411251 0.2686056 -0.57254666 -0.7172304 -0.18986559 0.60793704 -0.41995865
-0.49258804 1.1344664 1.2383254 0.7273295 0.39209744 -0.097231664 -0.117954105 -0.3172282
-0.36204422 1.6476047 -0.44243822 0.00661085 1.254396 0.49248937 -0.2945242 -0.5352565
-0.00050613284 -0.20500018 1.1287062 -0.3341329 -0.49636567 -0.61344457 0.43593442 -0.6976136
-0.8604504 -0.112357646 -0.8536424 1.1102585 -1.0953321 1.3742311 -0.43846828 0.1348952
0.82794946 0.04634577 -0.06155514 -0.16864176 1.3407933 0.5556856 -0.078626975 -0.06452368
-0.89740163 -0.14647114 -0.11039418 -0.24330127 -1.1083742 1.4730265 -0.4387339 1.4770474
-0.4626836 -0.57622886 -0.3884045 0.0143149495 -1.008107 -0.7424796 -0.87045836 0.06388651
-0.31135303 -0.6181791 -0.45791286 -0.62718666 -0.19508973 -0.32961637 -0.5007988 1.1857147
-1.0349383 1.2261527 -0.585872 1.9304955 -0.9347944 -0.5637002 0.8694078 0.831299
-0.57945645 0.8326961 -0.69584095 0.52802885 -0.21792905 -0.4820292 0.52090615 -0.008163543
1.4331445 1.3514962 0.54707533 0.0708611 -0.57003456 -0.59760475 -0.51532495 -0.21196109
1.6030341 0.57169795 -1.0027685 0.99946094 -0.6990835 -0.81216323 0.547758 -0.5636549
-0.40618816 0.32883945 -0.17960405 -0.2879152 -0.31662673 -0.675292 -0.46714735 -0.46642515
-0.5948619 -0.3992251 0.7363221 -0.3626725 0.11077869 -0.37838736 0.23133302 -0.5988542
1.3856158 -0.10947142 -0.79233736 0.6915301 -0.25520882 -0.80549514 -0.9861194 1.3415182
0.6720626 0.6545851 -0.92827904 -0.03209479 -0.17297721 -0.455218 -0.87556136 0.8067281
-0.63886535 0.6854354 -1.2331629 -0.54426396 0.41443047 -0.34541363 1.1081607 0.6942462
-0.6894882 -0.3116668 0.053376377 -0.60978204 -0.83797216 -0.91479325 -0.4744749 -0.23327956
0.92853564 -0.060425058 -0.52668405 -0.75095844 -0.883242 0.17641985 -0.6308263 -0.03520447
-0.30976903 0.88728637 -0.34516025 -0.24058074 -0.83720744 -0.50710166 -0.7457496 -0.59142
-0.928481 -0.6999931 0.43394163 1.4432242 -0.6772982 0.86832273 0.7799599 -0.1675385
0.109957054 -0.8216451 -0.47706252 -0.63311756 -0.99645793 -0.5592487 1.6633974 -0.3481927
00000000: 70eb b1bd cad8 b83f 2c96 7f3f 98eb 083f
00000010: cc08 5c3f 80af 47bb dfc0 87bf 4b06 27bf
00000020: 20de 2b3d aca6 47be dda6 5c3f b40d 0140
00000030: 0161 64bf 67ae f9be cae2 b23e 9b67 cebe
00000040: 6a62 ebbd b211 b8be a5e4 bb3f 66a0 02bf
00000050: 3800 eb3e 1ac8 b23e 7d77 be3f e90b a6be
00000060: 0878 65bf f0db b4be 20aa 36bf 7f2f 2f3f
00000070: 537f 62bf a6cc 283f aec5 313f 74a7 1abf
00000080: 8027 f5be 60ba 3dbf ac86 893e 6b92 12bf
00000090: 699c 37bf 206c 42be c3a1 1b3f d204 d7be
000000a0: 8034 fcbe 3236 913f 7281 9e3f 4432 3a3f
000000b0: ffc0 c83e 6521 c7bd ec91 f1bd bc6b a2be
000000c0: dc5d b9be b6e4 d23f 4387 e2be d49f d83b
000000d0: 0c90 a03f 9127 fc3e e0cb 96be 9206 09bf
000000e0: 00ae 04ba 91eb 51be 7279 903f 7813 abbe
000000f0: a423 febe b40a 1dbf cc32 df3e ce96 32bf
00000100: 7a46 5cbf c41b e6bd 4f88 5abf f31c 8e3f
00000110: d833 8cbf cee6 af3f ea7e e0be f821 0a3e
00000120: 7ff4 533f 10d5 3d3d 3e21 7cbd 6db0 2cbe
00000130: 1d9f ab3f 6941 0e3f 2e07 a1bd fe24 84bd
00000140: 1dbc 65bf 88fc 15be 5816 e2bd f823 79be
00000150: 35df 8dbf 228c bc3f bba1 e0be e40f bd3f
00000160: dde4 ecbe bc83 13bf f4dc c6be 4089 6a3c
00000170: a609 81bf 2513 3ebf 5cd6 5ebf eed6 823d
00000180: aa69 9fbe fc40 1ebf 8e73 eabe 4e8f 20bf
00000190: 9ac5 47be 7ac3 a8be 5a34 00bf 80c5 973f
000001a0: dc78 84bf 92f2 9c3f b5fb 15bf 7a1a f73f
000001b0: b04e 6fbf a84e 10bf 8291 5e3f 03d0 543f
000001c0: 4257 14bf 922b 553f a222 32bf e62c 073f
000001d0: cb28 5fbe 88cc f6be 1b5a 053f 62c0 05bc
000001e0: 4771 b73f d4fd ac3f 210d 0c3f a01f 913d
000001f0: c9ed 11bf a0fc 18bf 56ec 03bf 540c 59be
00000200: 3930 cd3f cc5a 123f b85a 80bf acdc 7f3f
00000210: 23f7 32bf eee9 4fbf de39 0c3f b04b 10bf
00000220: e5f7 cfbe a55d a83e 20ea 37be 9f69 93be
00000230: e61c a2be f0df 2cbf f02d efbe 47cf eebe
00000240: df48 18bf 3b67 ccbe 9b7f 3c3f 36b0 b9be
00000250: f0df e23d fdbb c1be 90e2 6c3e 824e 19bf
00000260: dc5b b13f 8d32 e0bd 9fd6 4abf 1e08 313f
00000270: bbaa 82be ee34 4ebf 5272 7cbf deb6 ab3f
00000280: 4b0c 2c3f e492 273f b2a3 6dbf d475 03bd
00000290: f020 31be 5512 e9be ca24 60bf bc85 4e3f
000002a0: ae8c 23bf b278 2f3f 48d8 9dbf e254 0bbf
000002b0: 3b30 d43e 0eda b0be 36d8 8d3f 1eba 313f
000002c0: 4c82 30bf ca92 9fbe 30a1 5a3d ad1a 1cbf
000002d0: 5885 56bf e42f 6abf 60ee f2be d6e0 6ebe
000002e0: 83b4 6d3f 4480 77bd c4d4 06bf d03e 40bf
000002f0: 261c 62bf 68a7 343e d57d 21bf 9032 10bd
00000300: 0c9a 9ebe 3325 633f d8b8 b0be cc5a 76be
00000310: 3a53 56bf 6ad1 01bf 72e9 3ebf 4d67 17bf
00000320: eeb0 6dbf bf32 33bf 992d de3e 92bb b83f
00000330: 6a63 2dbf 664a 5e3f 74ab 473f 368f 2bbe
00000340: 2a31 e13d 5557 52bf 8a41 f4be fe13 22bf
00000350: de17 7fbf ec2a 0fbf 35ea d43f 5046 b2be

model/batch_normalization_22/FusedBatchNormV3 f4 [216]
0.2491083 0.9290305 0.07455866 -0.4254368 0.47926897 0.6385764 5.9365206 0.1537197
-0.3972994 0.99387586 -0.15405574 -0.5572287 -0.07044118 0.14577104 -2.0859258 0.024083614
0.45786664 -0.35476366 1.1807616 1.3448148 -0.35808212 0.5178288 -0.21461725 -0.18454084
-0.6177789 -0.13677245 0.08572843 1.410583 -0.6926951 -0.7423167 -0.60028833 0.7156892
0.6679205 -0.5809022 -0.27581817 1.3116043 -0.74880296 0.5179268 -0.4671228 0.08034237
0.8939613 1.0016906 0.30659303 1.2769886 -0.2516653 0.8668428 -0.32694244 1.992581
0.6666956 1.4043602 -0.22008881 0.43814948 -0.4036381 0.54400516 -0.8556534 -0.22602181
0.18493201 1.126873 -0.6180353 -0.2401388 0.98794997 0.6725989 0.651689 -0.2863883
0.6832068 0.40798172 0.56711656 1.170299 0.51423514 -0.76412314 -1.1820917 -0.167947
-0.94895697 -0.8375019 -0.09719762 0.6554904 -0.8294138 0.18907836 -0.20285966 -0.38644916
-0.5457329 -0.28402865 4.23392 -0.644169 -0.044714674 -0.9110747 1.4569969 -0.15881371
-0.96238554 0.12501234 -0.39362404 0.7680106 0.7121305 2.532587 1.5045505 -0.4168756
-0.42832345 -0.57434666 0.32598156 3.5292037 -0.4020006 1.463226 0.33097 0.5676525
2.0391088 0.18133286 -1.0858272 -1.4745747 2.0038867 1.037547 -0.20885786 0.13613445
-0.76988894 -0.57933235 -0.89706177 -0.43915626 0.68670464 0.9916421 0.07023882 -0.23995006
-0.4694298 0.2072092 0.35977465 -0.3026536 1.0586044 0.10094689 0.6739707 -0.5177633
1.450694 0.86933196 -0.034808364 -0.31756207 -0.004009068 -0.012339234 -0.18644303 0.97323734
-0.45971513 0.92146087 0.31703305 1.1649617 -0.52070904 -0.7827356 1.085043 0.267431
-0.26073307 1.3720379 1.3731177 0.9680462 0.39055586 -1.0106434 -0.2397604 0.70051545
1.274236 0.5748638 -0.762125 2.001298 -1.0269367 0.111571476 0.012814492 -0.3702584
-0.6081971 0.8817754 -0.3412012 -0.036249787 -0.16698194 -0.3135032 2.0948184 0.3082524
0.22777009 -0.3374978 0.40630433 0.93178624 0.7439628 0.35324737 -0.5220767 -0.3892926
-0.3597827 0.69689345 0.44385278 0.7121314 1.7390716 1.5236177 -0.5715208 0.468453
-1.2145463 -0.65217274 -0.69987285 0.55076045 0.5346029 1.2566286 0.5257697 0.12266441
-0.45806804 -0.7505375 0.65832007 -0.29831684 -0.2625203 0.3852018 1.7015142 -0.70383626
1.2791977 -0.8808883 0.36130172 0.030317008 -0.14029282 -0.7719995 -0.15012994 -0.57915115
0.45820993 -0.9058588 0.90948313 1.5787 0.7218777 -0.6378704 1.0260781 -0.6671582
00000000: 3f16 7f3e f1d4 6d3f 36b2 983d dad2 d9be
00000010: be62 f53e be79 233f faf7 bd40 b268 1d3e
00000020: d46a cbbe a66e 7e3f cac0 1dbe 8aa6 0ebf
00000030: 7743 90bd 0145 153e cf7f 05c0 004b c53c
00000040: 7f6d ea3e 95a3 b5be 3223 973f e422 ac3f
00000050: 8a56 b7be 6e90 043f a0c4 5bbe 46f8 3cbe
00000060: c226 1ebf 140e 0cbe 6392 af3d fc8d b43f
00000070: 7754 31bf 7808 3ebf 7fac 19bf 6837 373f
00000080: d6fc 2a3f 02b6 14bf 0a38 8dbe a6e2 a73f
00000090: 8db1 3fbf da96 043f b82a efbe 8a8a a43d
000000a0: a6da 643f 6637 803f c3f9 9c3e 5d74 a33f
000000b0: 46da 80be 69e9 5d3f 0065 a7be e50c ff3f
000000c0: 90ac 2a3f 13c2 b33f f65e 61be 2155 e03e
000000d0: a7a9 cebe ec43 0b3f 1a0c 5bbf 4372 67be
000000e0: d15e 3d3e 603d 903f 9037 1ebf f2e6 75be
000000f0: 4aea 7c3f 712f 2c3f 17d5 263f 7da1 92be
00000100: a4e6 2e3f fbe2 d03e 8d2e 113f 5ccc 953f
00000110: eaa4 033f 939d 43bf c84e 97bf 4cfa 2bbe
00000120: d8ee 72bf 8666 56bf 8c0f c7bd 38ce 273f
00000130: 7654 54bf c29d 413e 71ba 4fbe aadc c5be
00000140: 27b5 0bbf 346c 91be 467c 8740 42e8 24bf
00000150: bc26 37bd 313c 69bf e07e ba3f 10a0 22be
00000160: e65e 76bf 3c03 003e 1789 c9be 589c 443f
00000170: 2f4e 363f e815 2240 1c95 c03f b870 d5be
00000180: 364d dbbe 6208 13bf 0ee7 a63e 79de 6140
00000190: 06d3 cdbe fd4a bb3f e674 a93e ad51 113f
000001a0: c280 0240 52af 393e 63fc 8abf ddbe bcbf
000001b0: ae3f 0040 57ce 843f d6de 55be d466 0b3e
000001c0: 7117 45bf 204f 14bf d7a5 65bf 17d9 e0be
000001d0: e0cb 2f3f 42dc 7d3f 5fd9 8f3d 78b5 75be
000001e0: 1a59 f0be a62e 543e 6234 b83e 6af5 9abe
000001f0: 5980 873f 3ebd ce3d 5889 2c3f 238c 04bf
00000200: 57b0 b93f 8a8c 5e3f 3793 0ebd 7f97 a2be
00000210: 805e 83bb 802a 4abc ecea 3ebe 1526 793f
00000220: c85f ebbe dce4 6b3f 2852 a23e 771d 953f
00000230: 304d 05bf 5c61 48bf b0e2 8a3f b7ec 883e
00000240: ce7e 85be f09e af3f 52c2 af3f e0d1 773f
00000250: f0f6 c73e c35c 81bf c083 75be fb54 333f
00000260: 2a1a a33f 462a 133f a01a 43bf 4415 0040
00000270: a972 83bf 967f e43d e0f3 513c 8292 bdbe
00000280: ceb2 1bbf 08bc 613f ecb1 aebe a87a 14bd
00000290: 50fd 2abe 7e83 a0be 8111 0640 42d3 9d3e
000002a0: 903c 693e 83cc acbe 1f07 d03e 8b89 6e3f
000002b0: 5974 3e3f d7dc b43e d2a6 05bf 5c51 c7be
000002c0: 7035 b8be 9c67 323f ac40 e33e 3e4e 363f
000002d0: e699 de3f e805 c33f 304f 12bf 12d9 ef3e
000002e0: 4176 9bbf cbf4 26bf de2a 33bf a3fe 0c3f
000002f0: bcdb 083f 35d9 a03f d898 063f 7a37 fb3d
00000300: e587 eabe 3a23 40bf aa87 283f fcbc 98be
00000310: 1069 86be 2c39 c53e 38cb d93f 9d2e 34bf
00000320: c0bc a33f e581 61bf 8afc b83e 605b f83c
00000330: eca8 0fbe c2a1 45bf aabb 19be 4043 14bf
00000340: 7e9a ea3e 5de6 67bf e3d3 683f d712 ca3f
00000350: facc 383f 794b 23bf 8756 833f e1ca 2abf

model/batch_normalization_25/FusedBatchNormV3 f4 [264]
-0.5767863 0.76989555 0.9643398 0.054612152 -0.98687714 -0.1945776 0.5679538 0.764229
-0.3223352 0.99971306 0.6269284 -0.7115544 -0.32871008 -0.58228016 -0.5428942 -0.5590029
-0.048190072 1.1475041 -0.7544635 -0.1458053 -0.22062883 0.16426134 1.3770564 -0.37874532
0.8338516 -0.72001404 2.0154846 -0.48561496 0.7256275 0.10200548 -0.2066133 -0.7525251
0.75719374 -0.51666385 1.9199331 -0.90369326 0.8397084 -0.8815951 -0.06862372 -0.49407375
-0.5522484 1.0524038 -0.5257809 0.47026396 0.7549958 -0.12847319 -0.89501643 -0.06546879
-0.7191876 -0.32280153 -0.03685186 -0.91905254 -0.35556182 0.4558583 0.9298304 -1.3420591
1.6387919 0.8844328 0.7969965 -0.47758722 -0.6244817 -0.47211015 0.24770385 -0.4051614
1.2058139 1.4334162 -0.50080246 -0.2375578 -0.32074037 0.02779074 -0.7246314 1.175544
0.23714903 -0.58543026 0.5939475 0.27652568 -0.42189044 -0.6010427 0.4700337 -0.904392
-0.6074958 -0.18106256 -0.8867338 0.46140015 0.5217257 -0.17201479 -0.24593034 -0.08527
1.097911 -0.20243782 0.0025285482 1.3060144 -0.72883636 -0.2287784 0.2568047 -0.59108365
-0.5698617 -0.8481591 -0.52577543 -0.59915763 -0.44935992 0.96900827 -0.268552 -0.67367095
1.5805552 -0.78971386 -0.2316306 0.16776797 1.1618654 -0.3459512 -0.40015092 -0.84887475
0.3292052 0.48756823 0.4432659 -0.52359354 0.3781663 -0.12665117 -0.18451643 -0.32524097
-0.43726647 -0.6783346 1.1913158 -0.7111347 1.0645674 1.0622902 -0.77351844 1.0547657
-0.28681102 0.32612324 -0.20400798 0.046606302 0.54412764 -0.55426425 0.5948503 -0.8210144
-0.32185578 0.7357266 0.70021653 -1.1303719 -0.19148597 0.4875715 -1.2876295 -0.38388002
1.549659 0.305846 0.48974672 1.3204932 -0.6064951 0.6135512 -0.7768464 -0.94207835
0.052403226 -0.2852009 -0.24977106 1.326292 0.6858099 0.868219 -0.49011797 0.48995364
0.9067205 -0.084156394 -0.6562773 -0.27346244 -0.108834 0.9642527 0.86693144 1.3385462
0.016777933 -0.57612383 1.0607164 0.2330418 0.83065903 -0.53876 0.67893374 1.3651196
0.20905192 0.7511834 0.2765767 0.53443396 -0.6463558 1.1447546 -1.2311783 0.70495373
-1.2136608 1.1448021 0.20405619 -0.72404945 -0.7984634 -0.5839397 0.9369454 2.937583
1.0634972 1.2564071 0.29659906 -0.37314695 -0.09539914 -0.5866695 0.769289 1.011705
-0.10846773 -0.5273436 -0.4324963 0.89994466 -0.7337029 0.67859256 0.76072633 -0.44283405
-0.26115108 -0.16457908 -0.8530005 -0.3337756 0.46449995 -0.21927002 0.30818278 0.88628006
-0.5601646 0.86822 0.053970493 -0.438406 0.16228798 0.6727593 1.3135265 0.24219984
1.3526292 -0.9774238 0.30396459 0.439938 0.0025507212 -0.3928362 0.4136585 0.6566943
-0.77617717 -1.0698062 -0.030936837 -0.2402476 0.61168945 0.3622415 -0.48885104 -0.8876575
-0.8569573 -0.20561852 1.3451986 -0.95787317 0.80030346 -0.63447183 -0.5404245 -0.3373293
-0.75528365 -0.6449546 -0.6428796 0.7714921 0.19808275 -0.3894631 1.0253065 1.1327149
00000000: 44a8 13bf e017 453f f9de 763f feb0 5f3d
00000010: fba3 7cbf 5a3f 47be 6c65 113f 83a4 433f
00000020: 1f09 a5be 32ed 7f3f 617e 203f 6e28 36bf
00000030: b04c a8be 5010 15bf 1dfb 0abf d01a 0fbf
00000040: f462 45bd 6ae1 923f 8524 41bf fc4d 15be
00000050: 86ec 61be 2034 283e 6243 b03f e8ea c1be
00000060: 4c77 553f d752 38bf b3fd 0040 86a2 f8be
00000070: b9c2 393f 40e8 d03d 7092 53be 7ca5 40bf
00000080: 73d7 413f 1544 04bf 5ec0 f53f 7158 67bf
00000090: 21f7 563f 37b0 61bf 988a 8cbd 3cf7 fcbe
000000a0: 2760 0dbf 2bb5 863f 9499 06bf 70c6 f03e
000000b0: 6847 413f 7a8e 03be cc1f 65bf 8014 86bd
000000c0: ae1c 38bf 3e46 a5be faf1 16bd 0747 6bbf
000000d0: 330c b6be 4266 e93e 5d09 6e3f 98c8 abbf
000000e0: efc3 d13f 306a 623f f607 4c3f 5086 f4be
000000f0: 08de 1fbf 6cb8 f1be 14a6 7d3e 5171 cfbe
00000100: 1c58 9a3f 2f7a b73f 9734 00bf 5a42 73be
00000110: 1538 a4be 68a9 e33c 7281 39bf 3a78 963f
00000120: 32d7 723e c2de 15bf f20c 183f c694 8d3e
00000130: 0602 d8be efdd 19bf 42a8 f03e 3c86 67bf
00000140: d884 1bbf 7768 39be fc00 63bf a43c ec3e
00000150: d18f 053f a524 30be 2ad5 7bbe 0aa2 aebd
00000160: 5988 8c3f dc4b 4fbe 00b6 253b 7b2b a73f
00000170: 0595 3abf e344 6abe e87b 833e 4251 17bf
00000180: 75e2 11bf f420 59bf 3899 06bf 6562 19bf
00000190: 8112 e6be ed10 783f a67f 89be b375 2cbf
000001a0: a24f ca3f b02a 4abf 9230 6dbe 5ecb 2b3e
000001b0: 01b8 943f 8420 b1be 95e0 ccbe db4f 59bf
000001c0: 958d a83e 8ba2 f93e bff3 e23e 3a0a 06bf
000001d0: 039f c13e d8b0 01be e0f1 3cbe fc85 a6be
000001e0: 64e1 dfbe 56a7 2dbf 097d 983f ec0c 36bf
000001f0: bf43 883f 20f9 873f 4e05 46bf 9002 873f
00000200: e5d8 92be a0f9 a63e 78e7 50be 40e6 3e3d
00000210: f34b 0b3f 43e4 0dbf 1c48 183f 002e 52bf
00000220: 48ca a4be 9458 3c3f 6441 333f 07b0 90bf
00000230: e614 44be f9a2 f93e 0bd1 a4bf ec8b c4be
00000240: 3a5b c63f d997 9c3e 15c0 fa3e ec05 a93f
00000250: 4343 1bbf b111 1d3f 68df 46bf 0c2c 71bf
00000260: c4a4 563d da05 92be fcc3 7fbe f0c3 a93f
00000270: 3d91 2f3f 9a43 5e3f bef0 fabe 34db fa3e
00000280: d61e 683f 305a acbd ca01 28bf 4503 8cbe
00000290: 5ce4 debd 44d9 763f 38ef 5d3f 7b55 ab3f
000002a0: e071 893c da7c 13bf 8ec5 873f 82a2 6e3e
000002b0: 12a6 543f 2dec 09bf 9ace 2d3f 3dbc ae3f
000002c0: b511 563e 8e4d 403f 769b 8d3e aad0 083f
000002d0: 9377 25bf 5287 923f 4097 9dbf d977 343f
000002e0: 3d59 9bbf e088 923f 1bf4 503e 4e5b 39bf
000002f0: 1968 4cbf 127d 15bf a7db 6f3f 5c01 3c40
00000300: ad20 883f f3d1 a03f d5db 973e 1e0d bfbe
00000310: a060 c3bd f92f 16bf 20f0 443f 8d7f 813f
00000320: 5424 debd fdff 06bf 2870 ddbe c662 663f
00000330: f4d3 3bbf 3eb8 2d3f f6be 423f 25bb e2be
00000340: 98b5 85be 6b87 28be 3e5e 5abf a3e4 aabe
00000350: f0d2 ed3e 5288 60be 22ca 9d3e 40e3 623f
00000360: f266 0fbf aa43 5e3f 2a10 5d3d c076 e0be
00000370: d22e 263e f439 2c3f a321 a83f 3c03 783e
00000380: f422 ad3f 7238 7abf 3fa1 9b3e 8e3f e13e
00000390: 002a 273b d421 c9be 0ccb d33e 1e1d 283f
000003a0: 8cb3 46bf 69ef 88bf 406f fdbc 7803 76be
000003b0: ae97 1c3f b877 b93e af4a fabe 863d 63bf
000003c0: 8e61 5bbf a98d 52be 782f ac3f 2d37 75bf
000003d0: b0e0 4c3f bf6c 22bf 4359 0abf 6db6 acbe
000003e0: 455a 41bf bf1b 25bf c293 24bf 8280 453f
000003f0: 34d6 4a3e b567 c7be 3e3d 833f cdfc 903f

model/batch_normalization_28/FusedBatchNormV3 f4 [264]
0.16772784 0.289797 -0.21508758 0.3768602 1.6958467 -0.7982632 -0.115444005 -0.13896427
0.88475496 -1.2710266 -0.4344564 0.5085739 -0.49658984 0.33051878 -0.20049353 -0.015207477
-0.53891355 -0.34644634 -0.25818062 -0.36389163 1.4725769 0.31515434 0.7815299 0.5223423
0.8843867 -0.30901393 -0.5233883 0.35327637 -0.49478775 1.315902 1.4515213 -0.1573298
0.38105777 -0.51141065 0.10863666 -0.72704905 -0.023807824 0.82367057 -0.89550495 -0.8153037
1.2092919 0.3282001 -0.55533785 -0.5521151 -0.8449658 -0.7263188 -0.12444252 -0.75752443
-0.42470288 1.2975911 -0.5303948 -0.14464758 -0.36351708 0.4852447 -0.14940594 1.4912249
0.14623591 0.4120624 1.2968985 1.4586582 1.2506703 -0.20930773 1.4473739 -0.22592025
-0.24954288 -0.24119729 1.8469751 0.6347867 0.38424632 -0.13551867 -0.21751817 -0.2228764
-0.9167288 -1.194094 0.79184544 -0.44409072 -0.344012 0.80602247 0.5250578 -0.3965007
-0.48531163 0.055530638 0.7374517 -0.6021715 -1.0193113 -0.2241621 -0.64729905 -0.4898766
2.6283288 0.64861065 -0.20670944 -0.5343078 0.013570037 -1.134257 -0.03647463 1.0327611
0.6910811 0.21773976 0.20284314 -0.7388835 0.9151176 2.8735316 4.341124 0.547676
-1.1449709 -0.84282875 -0.83719015 0.8166217 1.0678798 -0.24584673 0.39339578 -0.45025903
1.1748699 -0.67172265 1.1974757 -1.4188118 -0.28981644 0.23853002 0.09949297 -0.7408868
0.5601786 0.6051292 0.71816564 0.2633408 -0.38964337 2.132882 0.07650176 -0.23584974
1.4196234 1.1123908 1.1481801 1.0200771 2.526789 0.71713305 0.6573948 2.221415
-0.45006377 0.8292856 0.28144953 0.77193415 -0.8620388 0.7735397 -0.7403425 -0.37346244
1.627254 -0.7629693 -0.21327499 -0.41291457 0.5092588 0.41771537 0.032499284 1.4207363
-0.28232852 0.037440956 0.7708845 0.83400834 1.872373 0.48535374 0.5558748 -0.39917582
0.8744101 0.3938067 0.215188 0.30670816 0.0026526153 1.0325416 -0.06325012 -0.1956313
-0.29878405 0.17261809 1.5958387 0.5188907 -0.6830418 -0.07584944 0.83737534 0.6194101
1.0813522 0.36035305 0.53966874 -0.9053744 -0.9205287 1.5692848 -0.527251 0.79150075
0.9700179 0.7261786 -0.29937768 -0.32782406 -0.69633585 -0.03279537 0.8570563 0.3554576
-0.9997462 0.99014926 -0.8566697 -0.0663718 0.7800505 0.07448127 -0.91134715 1.2137371
-1.2292306 1.100976 -0.4070204 0.2106017 0.79861915 -0.3254676 0.52665377 0.448803
-0.21573393 0.7973621 0.70697486 -0.43668234 1.7103492 6.4719896 0.06930046 -0.11333017
-0.07507281 0.29455364 1.0205617 1.5367017 -0.044702932 -0.0070124567 -0.9510057 -0.33976156
-0.07019909 -0.7113724 -0.8857734 -0.7467717 -1.0892124 0.63122475 0.13464019 -0.24475369
1.110849 -0.025048912 0.028478831 0.29129285 0.45909816 -0.18282236 0.21203952 0.38658905
-0.8237679 1.1965098 0.22367033 0.27264902 0.22459282 1.0477748 -0.24039805 0.6082648
-0.052892078 -0.25996614 0.16503254 0.39780667 -1.1388294 -1.1876924 -0.23209484 3.3327265
00000000: d9c0 2b3e 4660 943e eb3f 5cbe d2f3 c03e
00000010: 8111 d93f fa5a 4cbf e86d ecbd a64c 0ebe
00000020: 4d7f 623f 00b1 a2bf 1271 debe e631 023f
00000030: 0641 febe c239 a93e 2d4e 4dbe c828 79bc
00000040: 3df6 09bf 6a61 b1be 4030 84be 0150 babe
00000050: 667d bc3f e95b a13e 5812 483f 3ab8 053f
00000060: 2b67 623f 1337 9ebe c7fc 05bf a4e0 b43e
00000070: d254 fdbe 7a6f a83f 73cb b93f 101b 21be
00000080: 011a c33e cfeb 02bf e67c de3d e31f 3abf
00000090: a008 c3bc 13dc 523f d03f 65bf beb7 50bf
000000a0: 14ca 9a3f d809 a83e 9f2a 0ebf 6a57 0dbf
000000b0: ae4f 58bf 07f0 39bf b8db febd 1fed 41bf
000000c0: a872 d9be 7717 a63f f4c7 07bf 7f1e 14be
000000d0: e91e babe fe71 f83e dffd 18be 75e0 be3f
000000e0: debe 153e d8f9 d23e c500 a63f 50b5 ba3f
000000f0: f715 a03f c454 56be 8c43 b93f a357 67be
00000100: 2b88 7fbe 6cfc 76be ae69 ec3f 6281 223f
00000110: efbb c43e 68c5 0abe 15bd 5ebe b639 64be
00000120: bdae 6abf 12d8 98bf 62b6 4a3f dc5f e3be
00000130: 5722 b0be 7d57 4e3f 306a 063f 2402 cbbe
00000140: c47a f8be 1874 633d a2c9 3c3f e927 1abf
00000150: cb78 82bf c08a 65be 64b5 25bf 1bd1 fabe
00000160: 8a36 2840 590b 263f a4ab 53be 65c8 08bf
00000170: dc54 5e3c 552f 91bf 6c66 15bd 8431 843f
00000180: b1ea 303f 2cf7 5e3e 1db6 4f3e 7827 3dbf
00000190: 2645 6a3f f1e7 3740 7dea 8a40 7f34 0c3f
000001a0: 688e 92bf a0c3 57bf 1852 56bf 1f0e 513f
000001b0: 49b0 883f 3fbf 7bbe 2c6b c93e 5a88 e6be
000001c0: 2362 963f 04f6 2bbf e246 993f a09b b5bf
000001d0: d262 94be 3741 743e f8c2 cb3d c2aa 3dbf
000001e0: dd67 0f3f bfe9 1a3f b4d9 373f 9bd4 863e
000001f0: 567f c7be 2481 0840 f4ac 9c3d 9882 71be
00000200: 38b6 b53f d262 8e3f 91f7 923f e391 823f
00000210: e9b6 2140 0896 373f 074b 283f aa2b 0e40
00000220: c26e e6be 104c 543f 271a 903e 7a9d 453f
00000230: 93ae 5cbf b306 463f 1687 3dbf 7836 bfbe
00000240: dc49 d03f f551 43bf c264 5abe 8a69 d3be
00000250: c95e 023f cade d53e f81d 053d b0da b53f
00000260: 5d8d 90be b05b 193d b058 453f 9281 553f
00000270: eba9 ef3f 4980 f83e d04d 0e3f c660 ccbe
00000280: 57d9 5f3f 08a1 c93e 3e5a 5c3e da08 9d3e
00000290: 80d7 2d3b 532a 843f 4789 81bd 9253 48be
000002a0: 39fa 98be ccc2 303e 7144 cc3f 05d6 043f
000002b0: d4db 2ebf f456 9bbd 3b5e 563f a991 1e3f
000002c0: c069 8a3f 3280 b83e bb27 0a3f 9ec6 67bf
000002d0: c5a7 6bbf 53de c83f ecf9 06bf cb9f 4a3f
000002e0: 1853 783f d7e6 393f 0848 99be 8ed8 a7be
000002f0: 1143 32bf 7054 06bd 0b68 5b3f 8afe b53e
00000300: 5eef 7fbf 6c7a 7d3f b54e 5bbf f0ed 87bd
00000310: 64b1 473f a389 983d 0c4e 69bf bd5b 9b3f
00000320: 6e57 9dbf c8ec 8c3f fa64 d0be f9a7 573e
00000330: 4e72 4c3f b0a3 a6be c8d2 063f 82c9 e53e
00000340: 5be9 5cbe ec1f 4c3f 4efc 343f d494 dfbe
00000350: b9ec da3f 8a1a cf40 66ed 8d3d a619 e8bd
00000360: c6bf 99bd bccf 963e c4a1 823f a4b2 c43f
00000370: 6c1a 37bd c0c8 e5bb 1c75 73bf 3af5 adbe
00000380: 8ac4 8fbd 801c 36bf 0cc2 62bf 6e2c 3fbf
00000390: 506b 8bbf f297 213f 1edf 093e b6a0 7abe
000003a0: 4d30 8e3f 6033 cdbc 704c e93c 5624 953e
000003b0: ea0e eb3e c935 3bbe e320 593e 00ef c53e
000003c0: 74e2 52bf 3c27 993f d609 653e a798 8b3e
000003d0: a9fb 653e 7c1d 863f e82a 76be 3eb7 1b3f
000003e0: 5da5 58bd 481a 85be 4afe 283e 51ad cb3e
000003f0: 29c5 91bf 4e06 98bf 45aa 6dbe 644b 5540

model/batch_normalization_31/FusedBatchNormV3 f4 [336]
-0.8047269 0.36311775 0.18492448 -0.5691805 0.30467308 0.08004528 0.4489993 -0.20773898
-0.46635246 -1.0009155 0.12018502 -0.32589757 0.20783572 -0.2921449 -0.41147828 -0.31376037
0.62110025 -0.6571581 -0.074175686 -1.129847 1.333339 0.16214827 1.3522415 -0.53476363
-0.2557738 -0.8919889 -0.33001578 -0.31855655 0.43476516 -0.6643527 1.3225411 -0.15119535
-0.7381091 -0.5831258 -0.4547106 0.23216256 1.0883973 0.5870848 -0.119437195 -0.64686006
1.3785949 -0.55924964 -0.24534908 -0.25924468 -0.27937025 -0.27102953 0.955565 0.2135176
1.2097058 0.59483963 0.47011107 -1.0881808 0.17745693 0.67635393 -0.83433366 -0.109062314
-0.44823828 0.46119165 1.3717571 -0.366894 -0.4703665 -0.46322578 -0.20299593 0.37208393
0.9155425 -0.021694511 0.3549951 -0.46261948 0.5001916 -0.7827339 -0.607873 0.9954489
0.31647068 -0.7000238 0.7222017 0.43109664 0.8186254 1.298412 0.09163563 -0.17759591
-1.3674935 -0.25015184 -0.0665242 0.06467326 -0.10760403 -0.22742878 0.7038466 0.5244098
0.3755375 -0.22454235 -0.57078445 0.016675562 -0.7352356 -0.14731002 -0.51085216 -0.8547039
0.5303313 0.17603014 -0.4195351 0.4564009 0.107034564 1.9993854 0.24172963 1.1422563
-0.35395968 1.2042772 0.1771006 -0.4758916 0.72067827 -0.5202946 -0.40341067 0.47985741
0.02648905 -0.86761665 1.0574516 0.39502618 -0.0864944 -0.14307141 -0.47991955 1.2491888
-0.59183973 -0.80153406 1.6131538 1.3525889 0.06617204 -0.4185567 -0.5277953 0.38689053
-0.52045876 -0.9078924 -0.7077644 0.7704664 0.38987207 -0.55683094 -0.0053822044 -0.12640472
0.21788731 -0.59117675 1.0360374 -0.3925836 0.18898109 -0.15346767 -0.10076386 -0.5340664
-0.019768711 -0.84071136 0.7929822 0.71284497 0.41827863 -0.11186969 0.17792417 0.059467774
-0.28330982 0.21847774 1.0607417 1.3305595 0.50547206 -0.5585316 0.68995464 -0.02067405
-0.11081336 -0.3384778 -0.99757195 -0.20405419 1.627728 -0.34085858 -0.047885627 -0.11812848
-0.30832332 0.22796185 0.018434644 0.28329507 0.83549255 0.5609437 -0.26824775 0.27077466
-0.6456857 0.6421997 0.18686059 0.6567565 0.22583896 -0.14818256 -0.009171829 0.89594555
0.21773429 -0.3790591 0.094147444 0.2915352 0.5597304 0.43948546 1.0089619 -0.16621442
0.041030362 0.3144952 0.52777123 0.28612512 -0.032768726 0.45931682 0.80021787 -0.3819449
-0.26468524 -0.9792683 0.6758527 0.6000442 0.20660646 0.82030624 0.0036340356 -0.48394728
0.6161597 -0.10607761 0.6902399 -0.42869592 0.967175 -0.43758354 -0.6292487 -0.05875407
1.2997873 -0.8351782 -0.557835 0.71269184 -0.6538201 -0.2290261 -0.42867154 -0.7376386
-0.0052380264 1.0514541 -0.33273312 -0.45058605 1.5321999 1.1396794 0.3853516 -0.42997596
-0.58952093 -0.23557225 -0.75143576 -0.29844257 1.4316972 1.0618079 -0.043717325 0.38198948
-0.6552204 0.34521854 -0.3328411 0.113978066 0.0052416623 -0.6091226 1.0125253 1.5072162
-0.5979831 -0.3595024 -0.14968833 0.61144483 0.19755578 -0.16727278 1.6685617 -0.34076637
00000000: 9502 4ebf 92ea b93e d85c 3d3e d0b5 11bf
00000010: 1cfe 9b3e c8ee a33d 3ce3 e53e 87b9 54be
00000020: c0c5 eebe 001e 80bf 9023 f63d 0cdc a6be
00000030: e3d2 543e 0494 95be 48ad d2be 33a5 a0be
00000040: 6d00 1f3f 833b 28bf 6ce9 97bd d49e 90bf
00000050: daaa aa3f 320a 263e 4016 ad3f 45e6 08bf
00000060: c9f4 82be 6259 64bf d4f7 a8be d819 a3be
00000070: 8a99 de3e 0513 2abf 0749 a93f f4d2 1abe
00000080: b8f4 3cbf bc47 15bf d4cf e8be 06bc 6d3e
00000090: 9a50 8b3f 304b 163f 7d9b f4bd 9f98 25bf
000000a0: cc75 b03f fc2a 0fbf ca3c 7bbe b8bb 84be
000000b0: 9e09 8fbe 62c4 8abe e89f 743f 5ca4 5a3e
000000c0: a4d7 9a3f 6947 183f 66b2 f03e 8249 8bbf
000000d0: 45b7 353e 8825 2d3f e496 55bf 105c dfbd
000000e0: 7d7f e5be 5021 ec3e bd95 af3f 88d9 bbbe
000000f0: e1d3 f0be ee2b edbe 2ade 4fbe c981 be3e
00000100: fe60 6a3f b0b8 b1bc ebc1 b53e 76dc ecbe
00000110: 8f0c 003f 4061 48bf 919d 1bbf bdd5 7e3f
00000120: 7208 a23e c234 33bf 36e2 383f b3b8 dc3e
00000130: 6f91 513f 5d32 a63f 76ab bb3d b4db 35be
00000140: 070a afbf e713 80be d73d 88bd 6a73 843d
00000150: 805f dcbd 17e3 68be 4a2f 343f b83f 063f
00000160: 7446 c03e 6eee 65be ee1e 12bf 309b 883c
00000170: 6638 3cbf 70d8 16be 35c7 02bf e0cd 5abf
00000180: cbc3 073f 3f41 343e 4ecd d6be 61ad e93e
00000190: f034 db3d dceb ff3f f987 773e 7435 923f
000001a0: 343a b5be c125 9a3f dc59 353e 10a8 f3be
000001b0: 5f7e 383f 0732 05bf d88b cebe dfaf f53e
000001c0: 90ff d83c 201c 5ebf 935a 873f df40 ca3e
000001d0: fa23 b1bd 5081 12be 04b8 f5be 6be5 9f3f
000001e0: cf82 17bf 5631 4dbf d37b ce3f a221 ad3f
000001f0: 3585 873d 104d d6be 981d 07bf 8416 c63e
00000200: c93c 05bf a36b 68bf 0c30 35bf 493d 453f
00000210: 509d c73e 798c 0ebf 345d b0bb 3d70 01be
00000220: da1d 5f3e 5c57 17bf e09c 843f b800 c9be
00000230: 4284 413e a126 1dbe 485d cebd 93b8 08bf
00000240: fef1 a1bc dc38 57bf e200 4b3f 027d 363f
00000250: 9e28 d63e f01b e5bd c131 363e 7b94 733d
00000260: fc0d 91be a1b8 5f3e 62c6 873f c64f aa3f
00000270: 9e66 013f edfb 0ebf dea0 303f a05c a9bc
00000280: 1df2 e2bd f64c adbe e060 7fbf 95f3 50be
00000290: 6459 d03f 0485 aebe b823 44bd 58ed f1bd
000002a0: 8edc 9dbe d56e 693e 4004 973c 0d0c 913e
000002b0: d7e2 553f 029a 0f3f c557 89be faa2 8a3e
000002c0: a84b 25bf 3367 243f 6258 3f3e 3221 283f
000002d0: 5442 673e 2bbd 17be 7045 16bc b05c 653f
000002e0: bdf5 5e3e 0914 c2be 60d0 c03d 1a44 953e
000002f0: 7e4a 0f3f 3d04 e13e aa25 813f 1d34 2abe
00000300: 740f 283d 8405 a13e 041c 073f fe7e 923e
00000310: 8038 06bd 932b eb3e 14db 4c3f 488e c3be
00000320: d384 87be 54b1 7abf af04 2d3f 7f9c 193f
00000330: a590 533e 97ff 513f 0029 6e3b f0c7 f7be
00000340: a4bc 1d3f 383f d9bd 90b3 303f 087e dbbe
00000350: c898 773f f30a e0be 7116 21bf 1ca8 70bd
00000360: 6e5f a63f 3dce 55bf 46ce 0ebf f972 363f
00000370: c160 27bf d185 6abe d67a dbbe e2d5 3cbf
00000380: c0a3 abbb 0c96 863f ff5b aabe 37b3 e6be
00000390: 201f c43f 04e1 913f ce4c c53e cf25 dcbe
000003a0: d8ea 16bf da39 71be 185e 40bf 77cd 98be
000003b0: db41 b73f 52e9 873f f010 33bd 2094 c33e
000003c0: 86bc 27bf 7cc0 b03e 266a aabe 556d e93d
000003d0: 40c2 ab3b 75ef 1bbf 6e9a 813f 76ec c03f
000003e0: 6c15 19bf b310 b8be e647 19be a687 1c3f
000003f0: 104c 4a3e 8e49 2bbe 6e93 d53f ee78 aebe
