new_tflite_model.tflite (tflite, 978768 bytes, 140 tensors)

model/batch_normalization_1/FusedBatchNormV3 f4 [32]
00000000: f40f 3d3e 0540 40be a630 8b3f 9411 a03e
00000010: 722f ef3f c869 9bbd 7ed6 49bd f037 653d
00000020: 6276 c1be 0006 26bb d9da b23f 0296 5e3f
00000030: 2740 073f 8eb3 e73e 88cd 2d3e ee37 ac3f
00000040: 296e 233f 93b5 ed3d e892 123c 60b8 1b3f
00000050: 3abc 993d 989d 113f 20ca 08bd 1132 c0be
00000060: c06a a6bd 3612 003f 86cc f8bd 20b6 173e
00000070: 0010 4539 026d 903d 776a 823e 16c4 253f
0.18463117 -0.18774422 1.0874221 0.3126341 1.8686354 -0.075885355 -0.04927682 0.05596155
-0.3778563 -0.0025333166 1.3973037 0.86947644 0.52832264 0.45254177 0.16972935 1.3454568
0.63839966 0.11606898 0.008946158 0.6082821 0.075066045 0.56881094 -0.033395886 -0.37538198
-0.0812583 0.5002779 -0.12148385 0.14815569 0.00018793344 0.070520416 0.2547185 0.6475233

model/batch_normalization_4/FusedBatchNormV3 f4 [96]
00000000: 58e3 233f dd63 cfbe 00d4 90be 758e 383e
00000010: 968e 0e3d 54f0 febd 9d32 3c3e 3abd a43e
00000020: 78b3 f33e b836 efbd 0ea4 9c3e e3d4 e03f
00000030: 1091 8d3d 6c87 4b3f 1315 b9bf 211b 013f
00000040: b4d7 203f 436f be3f fa3d 813c 6c34 0e3e
00000050: 27ef e43e 548d 973f cc03 29bf 6a2c d03e
00000060: 9647 81be cfc6 2c3f 6064 dc3e af75 10be
00000070: 9684 b6bd dc09 a93d 1a37 513f 8009 223f
00000080: 4ecb b53e c77c e8bf 343d 223d 2efc 7f3f
00000090: 280b 09bf fedf 3a3f 52b9 413f 60a6 363e
000000a0: 6c3c 3fbe 31ad 113f 034b fbbf 2ea5 383d
000000b0: f28d b5bd fce0 653f f0b6 bcbf 2556 3dc0
000000c0: 3ef0 36c0 a068 783d 6edf a43f a2a4 1b3f
000000d0: c040 813e be53 54be fb4b fb3e c185 81bf
000000e0: 40a7 c83f d246 ddbe 615a fc3e 69c5 9ebd
000000f0: c7d0 f03d ee10 b1be 07cf 61bf 2b2b 0f3e
00000100: c735 01c1 78e1 6fbe 3dc4 bfbe aa57 7f3f
00000110: 4558 943f e6b5 ebbe dc4f a43d 383e 58bf
00000120: b6d2 cdbe 8f1b 883f feb1 703f aa7e 213d
00000130: 65c3 b73f e9b6 7bc0 162b 703e 84bb 05bd
00000140: 7a03 723e 0566 ee3d 4ff9 ffbb a1e5 3d3e
00000150: aee6 443f 60a8 21bf 5915 bfbe 217d b7bf
00000160: 95cc 053d 40e2 d8bd 0cc3 7abf 5353 c6be
00000170: e664 973f ecb1 85be b840 c1bf 0e47 f2bd
0.64018774 -0.40505877 -0.28286743 0.18023093 0.03480395 -0.12448183 0.18378682 0.32175618
0.4759786 -0.11680359 0.30593914 1.7564968 0.06912434 0.7950351 -1.4459556 0.5043202
0.62829137 1.4877704 0.015776623 0.13887185 0.4471371 1.1840005 -0.6602142 0.40658885
-0.25249928 0.6749086 0.4304533 -0.14107393 -0.089120075 0.08253834 0.81724703 0.63295746
0.35506672 -1.8163079 0.03960915 0.9999417 -0.5353265 0.72998035 0.756734 0.17836905
-0.18675393 0.56904894 -1.9632267 0.045079403 -0.088649645 0.89796424 -1.4743328 -2.9583828
-2.8584132 0.060646653 1.2880685 0.60798085 0.25244713 -0.2073507 0.49081406 -1.0118943
1.5676041 -0.43218094 0.49287704 -0.07752497 0.11758571 -0.3458323 -0.88206524 0.13981311
-8.075629 -0.23425853 -0.37454405 0.9974314 1.1589438 -0.46037215 0.080230445 -0.8446994
-0.40199822 1.063341 0.94021595 0.039427437 1.4356505 -3.933039 0.23453936 -0.032649532
0.23634139 0.116405524 -0.0078117023 0.18544628 0.7691449 -0.63147545 -0.37320974 -1.4335061
0.032665808 -0.10590029 -0.9795387 -0.38735446 1.1827667 -0.26112306 -1.5097876 -0.11829959

model/batch_normalization_7/FusedBatchNormV3 f4 [144]
00000000: 384b 873d 43c3 703e 4d27 eebe dcb7 803f
00000010: dacb 43bf 6a3e edbe f2fd eb3f 1884 253d
00000020: be1f 2040 6c36 4d40 f792 74bf 841d ccbe
00000030: e303 3240 dec6 d73f 4e31 7f3e e0a5 87bc
00000040: 3a37 08bf 60ab 3a3d 8596 d23f d04d 373f
00000050: 3867 8f3d 79a5 f1be 6e41 17bf ac00 0940
00000060: 835c b83f 2124 adbf 7cf6 95bf 487d 5a3e
00000070: 6447 91bf e23d bd3f 603a a93f 133f cd3d
00000080: 0428 42bf 88ca 2fbe 8c28 043e ece6 58be
00000090: 022d 4bbe d6df 26be 6041 b13f 6c29 5c3f
000000a0: 4483 253e 4eed de3d dbd9 5d40 fdb6 59be
000000b0: a822 233e 74e8 973e 8d8d 6ebf 8b7c ca3d
000000c0: 9801 d3bd 6aeb 853f bc4c 81bf 3803 c63f
000000d0: 1ddd 783f 002d 83be d093 cc3e 942f 0e3f
000000e0: 4573 233e 648d 8bbe 40ce 993d 1419 2b3f
000000f0: c2e6 98bf 58de c2bd 2c74 233f 854c 8cbf
00000100: bb13 483e b9ee 07bf e0a3 1dbd ea2b 75bf
00000110: 8479 7dbe 28d6 18c0 f0e2 9bbe da6d fabe
00000120: dc66 f83d d0df 27bf 5f35 86be f05e c53d
00000130: 2d69 47bf d2b4 1cbf a769 bd3e e230 103f
00000140: 577f 923f a0f9 443e b820 bcbd a8b5 71bd
00000150: 745b a7bd 0a05 0bbf 7615 a3be 1f4b 8fbe
00000160: 0837 c2bd 6c9b 133d 274c 9bbf 72bd 253f
00000170: e48d 8ebf df6e 68bf 2dcb 193f 0b8c ae3f
00000180: 4ce9 fabe dceb 0ebe 9341 e140 622c 57bf
00000190: 7909 06c0 2980 0abe 6bee 0b40 d1a2 81be
000001a0: bb9f 5ebe f0f0 953f 88d5 dc3c 1af6 78bf
000001b0: 906f 52bd 6270 a0bf 201e 0fbf b696 f0be
000001c0: 001e 273b e210 83bf 00c9 1bbd 101c 54be
000001d0: 9086 8ebe 582b 743e ba09 32be 78f5 a3be
000001e0: e6eb d9bf 80f8 cb3c e837 cd3d 5a1a f7bf
000001f0: a231 a03e a315 49be b40c 3240 e3b2 8cbe
00000200: ec5c 0dbf 498e 4640 6d82 fd3f cc05 913f
00000210: e0a8 82be e0ee d8be b4f2 1fbf 3324 4440
00000220: c581 73bf 80bc 58bc 92bd 77bf 8efb 1b40
00000230: 292b 49be 920c e8be 1b71 96be 557b 1040
0.06606144 0.23511986 -0.4651436 1.005611 -0.7648293 -0.4633668 1.8436873 0.040409178
2.5019374 3.2064466 -0.9553675 -0.3986627 2.7814872 1.6857564 0.24921152 -0.016558588
-0.5320927 0.045573592 1.6452185 0.7160311 0.07002109 -0.47196558 -0.5908421 2.140666
1.4403232 -1.3526651 -1.1715846 0.21336854 -1.1349912 1.478451 1.322094 0.10021796
-0.7584231 -0.17167103 0.12906092 -0.2118184 -0.19841388 -0.16296324 1.3848076 0.86000705
0.16163355 0.10885106 3.4664218 -0.2126121 0.15931189 0.29669535 -0.9318474 0.09887036
-0.10303038 1.0462468 -1.0101542 1.5469732 0.9721239 -0.2562027 0.39956522 0.5554135
0.1596194 -0.2725631 0.07510042 0.6683514 -1.1945422 -0.09515065 0.6384914 -1.0960852
0.19538777 -0.53098637 -0.03848636 -0.9577013 -0.24753386 -2.388071 -0.30446577 -0.48911935
0.12128994 -0.65575886 -0.26212594 0.096372485 -0.7789486 -0.6121341 0.3699467 0.5632459
1.1445111 0.1923585 -0.09185928 -0.05901113 -0.0817174 -0.54304564 -0.3185231 -0.27987
-0.09483153 0.036036894 -1.2132615 0.64742196 -1.1137052 -0.90794176 0.60075647 1.3636488
-0.49006116 -0.1395716 7.0392547 -0.840521 -2.0943282 -0.13525452 2.1864269 -0.25319532
-0.2174062 1.1714153 0.026957288 -0.9725052 -0.051375926 -1.2534297 -0.5590534 -0.46989983
0.002550006 -1.0239527 -0.038033485 -0.2071383 -0.27837038 0.2384466 -0.17386523 -0.32023215
-1.7025115 0.024898767 0.10020429 -1.9304917 0.31287867 -0.1963716 2.7820253 -0.2748023
-0.5521991 3.1024344 1.9805428 1.1329894 -0.25519466 -0.42369747 -0.6247971 3.0647094
-0.9511989 -0.013228536 -0.96773636 2.4372287 -0.1964537 -0.4532209 -0.29383168 2.2575276

model/batch_normalization_10/FusedBatchNormV3 f4 [144]
00000000: 0cdd 673f 2778 3dbf a0da 2bbe a073 403d
00000010: d4cd e83e e508 8ebf 5802 0cbe ec56 9d3f
00000020: 9a53 973e 62ea ed3f c83f aabf 5935 4abf
00000030: a00b e3be 9cf0 a43d aa8d 53bf 8aae e93f
00000040: 143a 46bf 96e4 54be e61f e0be f0c0 d9bc
00000050: f6f1 26bf 2ee3 7cbe 946b c23e 0363 11bf
00000060: 34dd 7840 9a14 82bf a027 ac3c 58d0 b4bd
00000070: 4de9 2240 2052 5cbd 5b02 a63f d9a5 48be
00000080: 07e7 4abf a818 7bbf 0774 0abf 793d 42bf
00000090: 9454 acbd 5c4b 02bf 28b2 bc3d 2a5c 3e3f
000000a0: 672f 3940 9c97 3cbf 3fb4 20be a682 353e
000000b0: f4ab 32be d64e 7fbe a0e9 c23f 137b d4bd
000000c0: 3c5f 94be 1c47 bdbe 797d be3f d8e5 d3bd
000000d0: 7508 61bf b4a7 b93f d475 29bd 1aa3 debe
000000e0: 383e 2ebf 0264 9dbf 1369 20bf d0f3 3abe
000000f0: 2d5c fbbe d031 423c c292 07bf 505f 59bf
00000100: 8214 e9be 6284 3dbe acae 903f b3de 983f
00000110: 623c ddbe 82cf ab3f 9c82 4cbf 98f6 063f
00000120: 52e9 57be 12e3 053f c99f 2abf a09d b4be
00000130: ef45 29be d49e 753e 57aa afbe 2889 db3f
00000140: 29f7 1bc0 9e41 5e3e 5eb5 84bf af51 3abe
00000150: c557 50bf 6170 d2be e312 f53e b0ad 2c3f
00000160: 4d07 84be b0f4 0bbf 4011 a3bc acb2 b53f
00000170: b878 f2bd 220d 1c3f 2b59 b6be 7918 a83f
00000180: 6edc 6b3f 08cb 93bf 942f 1bbf 00c8 503c
00000190: 70e2 f5bd 28ff 163e 1ef8 25bf 6e27 0abf
000001a0: 9d1f 16be dc27 95bf f6ca b4bf c616 55bf
000001b0: 953c 04bd 023a cbbe 38d3 aabc ac30 d9bf
000001c0: 6d4d 43bf 2cad 073e b880 bebc 4d84 cfbf
000001d0: e688 e3be 9494 8fbe 5617 b13f d31b 7a3f
000001e0: dfff 8bbf caea bdbf a065 15c0 5862 de3f
000001f0: 8082 0ebe bea0 35bf 9c60 fdbd 6a77 203f
00000200: 2892 a2bd eadb f43f be95 23be 505e 59bd
00000210: 4482 7bbe f6d5 8bbf 24da 19bf 4321 edbd
00000220: ffb0 13be 3eeb 293f 54df 953f 45d4 23be
00000230: 166a edbe 7895 09bf 28a5 6bbe ba56 e43d
0.90571666 -0.7401146 -0.16782618 0.04698527 0.45469534 -1.1096464 -0.13672769 1.2292151
0.2955597 1.8587153 -1.3300714 -0.7898765 -0.44344807 0.08053705 -0.8263804 1.825639
-0.7743237 -0.20790324 -0.43774337 -0.026581258 -0.65212953 -0.24696037 0.379727 -0.56791705
3.8885012 -1.0162537 0.021014988 -0.08828801 2.5454895 -0.053789258 1.2969469 -0.19594516
-0.7925877 -0.980845 -0.54083294 -0.7587505 -0.084145695 -0.5089624 0.09213668 0.7435938
2.8935182 -0.7366884 -0.15693758 0.1772562 -0.17448407 -0.24932417 1.5227547 -0.10375037
-0.28978908 -0.36968315 1.4882041 -0.103465736 -0.8790353 1.4504304 -0.041372135 -0.43483812
-0.6806369 -1.2296145 -0.6266033 -0.1825707 -0.49093762 0.011852697 -0.5295831 -0.8491106
-0.4552346 -0.18507531 1.1303306 1.1942962 -0.4321013 1.3422701 -0.79886794 0.5272002
-0.21085098 0.52299607 -0.6665006 -0.35276508 -0.16530584 0.2398637 -0.34309646 1.7151232
-2.4369605 0.21704718 -1.0367849 -0.18195222 -0.81383926 -0.41101363 0.47865972 0.67452526
-0.2578682 -0.5467024 -0.019905686 1.4195151 -0.118394315 0.6095754 -0.35614905 1.3132468
0.92133224 -1.1546335 -0.60619473 0.012742996 -0.1200608 0.14745772 -0.6483172 -0.53966415
-0.14660497 -1.1652789 -1.4124439 -0.83237875 -0.032284338 -0.39692694 -0.02085267 -1.6967978
-0.7629002 0.13249654 -0.023254737 -1.621225 -0.44440383 -0.28043044 1.3835247 0.97698706
-1.0937461 -1.4837277 -2.3343277 1.7373762 -0.1391697 -0.709484 -0.123719424 0.6268221
-0.07938033 1.9129612 -0.15975091 -0.05306846 -0.24561411 -1.0924671 -0.6009848 -0.1157861
-0.14422987 0.66374576 1.1708779 -0.15998943 -0.4637 -0.53743696 -0.23012221 0.11149354

model/batch_normalization_13/FusedBatchNormV3 f4 [168]
00000000: 82b7 c13f cced 94bf 3e15 f63f c600 c83f
00000010: f4ea bdbf 863a 673f b6c3 37bf 006b dfbe
00000020: 69fd a63f 83c1 bc3f dee8 2fc0 a0c3 f83e
00000030: 5aa1 543f 2483 df3f 8edc dabe 3abe b13f
00000040: a05b 283d 000d 583d a288 f13f 2d08 333f
00000050: dabc 0940 b828 1d40 b553 053e 84d7 8cbc
00000060: c059 0d3d c0b8 243c c450 e43f b54f f03f
00000070: 59df 25bf e229 0b3f 26b5 0fbf 59ec 61be
00000080: 393e 26bf c220 1940 8b21 38bf 1c2e f13f
00000090: 8ff3 6abf de0f 3e3e d021 eabd e08d 5ebe
000000a0: ced6 6c3f 96f1 773e 4eb3 8a3e 6aee c63e
000000b0: e7af 8dbe 09b1 b4bc 285c 293e a223 f8be
000000c0: 40cf a6be 5191 5fbf aabd a3be 4c4c 2a40
000000d0: b677 9b3f e675 2fbe e092 33bd e032 7a3e
000000e0: 4cce a1bd 98ba cabd e00f 94bf 2dcb 9940
000000f0: 5695 22be aca0 2740 fa64 57be a004 3740
00000100: f07f 653d 5a2c da3e 50c3 353d 29ee 803d
00000110: 0ca8 ac3f 562c 88bf c6cc 913f 64e5 583f
00000120: 5c50 86bf 14ad 86be 1fda b33f 0a3b 99bf
00000130: 3824 6c40 420b 8dbf d07f a83f 0326 1e40
00000140: 3f43 e03f b0a6 a8bf 9bfd 0dbe 7d07 55bf
00000150: 4c6f 85be 2ce6 3f3e a93b 03bf 60c8 973f
00000160: 3e8e 67be 1ee6 d63e f66d 90be 36df 98bf
00000170: 0860 4e3f ac23 2d3e 3e95 2840 7437 a43f
00000180: ecc5 f1be 804e e63b 0065 0c3d 48e6 55bf
00000190: 14d5 f7bd f88c 493e 327b 263f 2c04 f5bd
000001a0: 9606 d23e c452 cbbf 6063 b4be 0b97 d63f
000001b0: 006e 6f3b 26fd 0240 4eaa 9dbe e3a9 84bf
000001c0: de0d 66be faef 883f ae8f 90be d2ab 3840
000001d0: 2589 1140 9eeb 87bf 147b 3f3e d8df fabd
000001e0: 81d4 ac3f e0ed eb3f 8081 f4bb 15b9 68be
000001f0: 53f2 27c0 7056 d93d 8e51 d6bf 59ed 48be
00000200: 7678 e7be f7fb 5b40 e10c 79bf e9ff adbe
00000210: 7b3a 13c0 2498 b6bd 4a7c 053f d93e 8e3f
00000220: 8d71 dcbe 8673 82bd e0e0 443e 6bcd 91bf
00000230: 5638 6dbe f6d6 1cc0 8919 96bf 90bb f03f
00000240: 6b6f 9abf 94a6 87be a87f c3bd 56be 3cbe
00000250: 946a 2b3f 2848 e43f cb00 53bf 64e1 3140
00000260: 0235 bc3f 284a 36be e5ad fa3f 103d 8abc
00000270: 9132 3340 9a59 e63f 709a aabe 8e0b 2cbf
00000280: 3061 b83f e4ce 82be cb6a c93f d489 1040
00000290: 8c92 d6bd 0301 0040 20bf afbc ff8a 15c0
1.5134127 -1.163507 1.9225233 1.5625236 -1.4837327 0.90323675 -0.71783006 -0.43636322
1.3046085 1.4746555 -2.748588 0.4858675 0.830587 1.7461896 -0.42746395 1.3886178
0.041103005 0.052746773 1.8869822 0.6993435 2.1521516 2.4556103 0.13020213 -0.01719261
0.03450942 0.010053813 1.7837148 1.8774325 -0.64793926 0.54360783 -0.56135786 -0.22062816
-0.64938694 2.3926244 -0.7192618 1.8842196 -0.9177789 0.1856074 -0.114322305 -0.21733809
0.92515266 0.24213251 0.27089924 0.3885377 -0.27673265 -0.022057073 0.16539061 -0.48464686
-0.32579994 -0.8733111 -0.3198064 2.6609068 1.2145908 -0.17134818 -0.043841243 0.2443347
-0.07900676 -0.09898871 -1.1567345 4.8060517 -0.1587728 2.6191816 -0.21034613 2.8596573
0.056030214 0.42611963 0.044375718 0.062954254 1.3488784 -1.063853 1.1390617 0.8472502
-1.0493274 -0.26303923 1.405094 -1.1971142 3.6897106 -1.1019061 1.3164005 2.47107
1.7520522 -1.3175869 -0.13866274 -0.8321455 -0.26061475 0.18740147 -0.5126291 1.1858025
-0.22612855 0.4197244 -0.28208894 -1.1943119 0.8061528 0.16908139 2.634109 1.2829423
-0.47221315 0.007028401 0.03427601 -0.83554506 -0.12101188 0.19682682 0.6503173 -0.11963686
0.4102065 -1.5884633 -0.35232067 1.6764845 0.003653407 2.046701 -0.30793995 -1.0364345
-0.22466227 1.0698235 -0.2823462 2.885487 2.2739956 -1.061878 0.18699294 -0.12249726
1.3502351 1.8431969 -0.0074617267 -0.22726853 -2.6241653 0.1061219 -1.6743639 -0.19621791
-0.45209092 3.4372537 -0.97285277 -0.33984306 -2.3004444 -0.08915737 0.52142775 1.111293
-0.43055382 -0.063696906 0.19226408 -1.1390814 -0.23166022 -2.4506202 -1.1726543 1.880724
-1.2065252 -0.26494277 -0.09545833 -0.18431982 0.669595 1.783452 -0.82423085 2.7793818
1.4703677 -0.17801726 1.9584318 -0.01687482 2.7999613 1.7996094 -0.3332095 -0.6720513
1.4404659 -0.2554847 1.5735716 2.2584124 -0.1047717 2.0000618 -0.02145344 -2.3366086

model/batch_normalization_16/FusedBatchNormV3 f4 [168]
00000000: 89e4 583f 068f 953f fb30 c53e 6a7d 1ebf
00000010: 96be cd3f 4482 e840 58ca 63bd f8ed 29c0
00000020: 4996 fd3f d32d 913f e0b1 e3bd 7b69 aabe
00000030: 891b 8740 6663 4abe 8d91 21bf d6f4 27bf
00000040: 8029 ffbb 90f2 053c 18dd 49be c2a4 e4bf
00000050: c01f f63d 22da ed3f 2130 423f 480e 68be
00000060: 08f4 67bf bca2 e4be 6afc bfbe ee16 4e3f
00000070: 609e c33c 94a9 a3be d038 dd3c f932 72bf
00000080: 3cc3 383f faa1 a6bf 8a39 0940 0406 d4be
00000090: 44b4 e03f 806c f4bc 4cea c5be 0bca 57bf
000000a0: 78ea 51bf 42d2 65bf 7775 2440 1aec fabe
000000b0: 8ef7 57bf 2844 3f40 b86e 5140 2026 d33c
000000c0: 96e6 9ebf d601 bd3e 9b5c 46bf d919 b9be
000000d0: bf0a 1441 208a 693e f3c0 2140 1dd8 0dbf
000000e0: 2b85 1ebe d008 793c 9487 e13d c010 cc3f
000000f0: aa79 0740 3257 85bf a6b8 2e40 8464 09c0
00000100: 8c9c e1be 8037 21bf dc21 8b3f dcb7 d5be
00000110: 3ff3 0cbf aa14 4540 228f 1d40 40ea c0bd
00000120: 56d5 0040 4cc4 3440 349a 30bf 88f5 74bf
00000130: 90e9 82bd 6455 85bf 8ca3 1c3f 95ce 15bf
00000140: 7013 5440 241c 1140 e0be dabc 80db c0bd
00000150: 97c9 d33f be59 9dbe 2caa 1240 d5ac c7bf
00000160: 1445 96bf dc0d 87be 2bd1 d43f 4bfa 73bf
00000170: 9b3e f43f 0ebb 1d40 a8fe 70bf f0ee 273f
00000180: 04d5 083e c4b5 39bc e30d bf3d 4b04 283f
00000190: 22ee 3cbc 40ef 81bd 51ca c7be 4835 b2be
000001a0: 3479 34bf a618 2040 4fa7 803f 2cf3 543d
000001b0: 4cf6 dfbe cc8b da3e 4148 a1be ac58 ac3f
000001c0: dad9 3abf 3e03 1440 a21a fa3f 59ad b43f
000001d0: 6240 a43f e52c 53bf 1a26 0840 3034 33bd
000001e0: 5cf1 283e 4582 1f40 2280 4e3c de0b a9bf
000001f0: 02a8 e43e 8174 11be 99af b5bd f1a0 49bf
00000200: 4e1d 91be 8d78 1841 7e78 243e 64a5 693e
00000210: 5a88 b43f a410 533e 182c 66be 4196 0fbf
00000220: b092 8f3e 17a6 f7bd 567b b53f 6844 1041
00000230: 5c35 3a40 6b0f ad3f 523c b73f fc84 1e3f
00000240: 5001 3bbf 047d 843c e48e 6ebf b15c 18bf
00000250: ae0d 8c3f 031a 3f3f 86a3 89bf 9213 58bf
00000260: 598c 14bf 0931 483e 52dc d9bd 8a41 b0bf
00000270: 00e2 723f 99d8 09bf 8951 6a3e ef15 8d3f
00000280: a7ba 003f 5fc2 09be 32c8 153f 6a86 abbd
00000290: e312 6940 0086 183b e69b 41bd f878 6040
0.84723717 1.1684272 0.38513932 -0.61910117 1.6073787 7.2659016 -0.055612892 -2.6551495
1.9811488 1.134211 -0.11117911 -0.332836 4.222111 -0.1976448 -0.6311272 -0.65607965
-0.0077869296 0.008175507 -0.19713247 -1.786278 0.120177746 1.8582194 0.7585469 -0.22661698
-0.9060674 -0.44655406 -0.37497264 0.8050374 0.02387923 -0.31965315 0.02700463 -0.9460903
0.72172904 -1.3018181 2.144137 -0.4141084 1.7555013 -0.029836893 -0.38655317 -0.8429267
-0.81998396 -0.8977395 2.5696695 -0.49008256 -0.84362113 2.988535 3.2723827 0.025775015
-1.2414119 0.36915463 -0.77485055 -0.36152533 9.252624 0.22806597 2.5274017 -0.5540789
-0.15480487 0.015199855 0.110121876 1.5942612 2.1168008 -1.0417235 2.73002 -2.14676
-0.44064748 -0.6297531 1.0869708 -0.41741836 -0.55058664 3.0793862 2.4618611 -0.0941968
2.013021 2.824481 -0.68985295 -0.9568715 -0.06392205 -1.0416684 0.6118705 -0.58518344
3.3136864 2.2673426 -0.026702344 -0.09416866 1.6545895 -0.3073253 2.2916365 -1.5599619
-1.1739831 -0.2637776 1.6626333 -0.9530379 1.9081606 2.464542 -0.94138575 0.65598965
0.13362509 -0.01133484 0.093288206 0.6563155 -0.011531385 -0.063444614 -0.39021543 -0.34806275
-0.7049744 2.5015044 1.0051059 0.05198972 -0.43742597 0.42684782 -0.31500438 1.346456
-0.72988665 2.312698 1.9539378 1.4115402 1.2832148 -0.8249038 2.1273255 -0.04375094
0.16498321 2.492326 0.012603791 -1.3206747 0.4465943 -0.14204599 -0.08871383 -0.787612
-0.2834267 9.529431 0.16061589 0.22816998 1.4104111 0.20611817 -0.22477758 -0.56088644
0.280416 -0.12092226 1.4178264 9.016701 2.9095068 1.352033 1.4315283 0.6192167
-0.7304888 0.016172893 -0.93186784 -0.59516436 1.0941675 0.74649066 -1.0753028 -0.8440486
-0.58026654 0.19549955 -0.10637726 -1.3770001 0.948761 -0.53846127 0.22882666 1.1022319
0.5028481 -0.13453053 0.585086 -0.08375247 3.6417778 0.002327323 -0.047267817 3.5073833

model/batch_normalization_19/FusedBatchNormV3 f4 [216]
00000000: 8ecb 53be de87 be3f ff02 c83e 3aff fb3e
00000010: 4457 783f 466a d6be cc0a 41bf 4604 a4bf
00000020: 9d5c 0fbf 747f e13e 40fb b43f 217e a43f
00000030: 249f 96bf b63e f7bf 04db 693f d431 c7bd
00000040: d062 e2bd 0e3a bebe 41da f13f 4244 cbbe
00000050: 94fe 6b3f a21c b1bf 0ce9 d73f 30b5 963d
00000060: 0aec b2be fe66 a2be c8de 893d f1a8 083f
00000070: 3a23 74bf 1289 e93f 878d 063f ea8d 4ebf
00000080: ea9c 73be 0846 5cbf 7853 0ac0 b35f 56bf
00000090: 0eae 58bf 6669 1d3d 76c6 f0be 1a03 32bf
000000a0: 4434 a7be fb50 b73f 6ee3 c53f d6c7 9f3f
000000b0: 0509 3fbe 6ee6 d7bd 16a3 a93e 84a6 483e
000000c0: 1f60 61be 13ad b43f 6e97 8cbe bc92 59be
000000d0: 3d54 d33f 44ed 87be 6ea2 853e ec9a e5be
000000e0: 7796 473d a88b f1be de41 8e3f 5a9e a0bf
000000f0: d09f c4be 3574 19bf b8af fe3d 2a90 babf
00000100: 656e 96bf 6e46 fbbe c695 e2bf df27 583f
00000110: 4a26 ccbf 9c4d 8b3f 6129 c7be 49e7 33bf
00000120: a24a 8b3f 48dc 39bf c366 b63e 150b 9dbe
00000130: c4ee dd3f 086c e03f 4770 13bf a1ab 72be
00000140: 1d47 89bf 04ad b6be 30f6 70bd 3818 4fbf
00000150: 72fe 7fbf f102 3640 945c 9cbf 6edb 6c3f
00000160: 902c 623d a817 98bc 3869 653e 1f49 4cbf
00000170: 50ed e2be b5e7 53be 821d 49bf 4e66 333f
00000180: 24f1 42bf cf31 11bf a993 a4be d627 79bf
00000190: cd74 c5be b606 10bf bc46 f6bf 599f 0f40
000001a0: 4fd4 d6be 302c e83f c0ba 1dbf b0c6 0040
000001b0: 56d9 1bbf 9a74 95bd ba68 f43f 173f aa3f
000001c0: f580 debe acb7 2540 911a 85be 9db9 983f
000001d0: 50d5 7e3d 518d c7be ed3b 7e3f 5e0b 243e
000001e0: 9392 ab3f 4e99 f73f 3c2a f03e 47e2 a5be
000001f0: d0a3 3f3d 10ae 97bd d934 efbd 2ddc 93be
00000200: 9439 ea3f 6482 ee3f c079 c3bd 9214 a93f
00000210: ed93 a7bf 0b23 55be fcef 943d 1e23 33bf
00000220: 3015 a33d ff2c 39bd d6b5 d0bf ec6b 1abe
00000230: 0c37 bfbe 801b b4bb 3a4c 77bf d0fa 113e
00000240: 4410 59bf 907c 25be f6f0 cc3f 7c23 cfbe
00000250: ef87 533f a826 09be 0ca8 09be bd24 2abf
00000260: 6e36 a93f 584a ae3c dd97 a9be 82a7 2bbe
00000270: dcd8 523e da20 61bf 80a8 aabf 1cbf 8d3f
00000280: 007d 2d3f 0fc3 8f3f 34d3 6cbf d701 b4be
00000290: 9ec8 a5be 8ed4 05be e87e b7bf b425 c03f
000002a0: dc43 8e3d be28 a43f fafe 76be 8e3a 75bf
000002b0: 947d 803f 7aab 66bd 417e 8c3f c604 383f
000002c0: 0c93 adbd 8eac 453e 9660 ce3e 4c60 90bf
000002d0: cccf 31bf 60f0 c9bf 00a8 4f3a c753 95bf
000002e0: d173 d43f 84b9 14bf c1be 56bf 6e5b 3cbf
000002f0: a24d 12bf da76 89bf e205 c1bf 73f8 1fbd
00000300: 5a1c 2b3f 6ea1 8f3f 3341 82bd 7077 e63c
00000310: e448 58bf 406d e9bd 17d5 97bf 52a0 26bf
00000320: 87f7 9bbf 43b3 8fbe ecbf 7cbf 56d5 d43f
00000330: 507e 99be ac20 443f 0856 4240 b8e0 50bd
00000340: 0036 d3bc ebb2 01bf 1460 26bf 9285 57bf
00000350: 2ae8 86be 9009 2abe 763b 0d40 74fc 59bf
-0.20683119 1.4885213 0.39064786 0.4921816 0.97008157 -0.41877955 -0.754071 -1.2813804
-0.5600069 0.44042552 1.4139175 1.2850991 -1.1767316 -1.9316013 0.91349816 -0.09726301
-0.11054003 -0.37153667 1.8894731 -0.39700514 0.9218533 -1.3836863 1.6867995 0.073587775
-0.3494571 -0.31719202 0.06731945 0.53382784 -0.9536625 1.8244956 0.52559704 -0.80685294
-0.23790327 -0.8604436 -2.1613445 -0.83739775 -0.84640586 0.038430594 -0.47026414 -0.6953598
-0.32657063 1.4321588 1.5460031 1.248286 -0.18655784 -0.10541998 0.33132237 0.1959477
-0.22009324 1.4115318 -0.27459282 -0.21247381 1.6510082 -0.26548207 0.26100487 -0.4484476
0.04872748 -0.47176862 1.1113851 -1.2548325 -0.38403177 -0.5994294 0.124358594 -1.4575245
-1.175244 -0.4907717 -1.7701957 0.8443584 -1.5949185 1.088306 -0.38898757 -0.7027479
1.0882151 -0.7260175 0.35625276 -0.30672517 1.733849 1.7532969 -0.57593197 -0.23698284
-1.0724827 -0.35678875 -0.058828533 -0.8089633 -0.9999763 2.8439295 -1.2215753 0.92522323
0.05521828 -0.018565968 0.22403419 -0.79799074 -0.4432168 -0.20693858 -0.7856065 0.7007798
-0.761492 -0.56716627 -0.32143906 -0.9732641 -0.38565674 -0.5626024 -1.9240336 2.2441008
-0.41958854 1.8138485 -0.6161308 2.012127 -0.60878503 -0.072976306 1.909446 1.3300503
-0.4345776 2.5893354 -0.2599683 1.1931645 0.06221515 -0.38975003 0.9931019 0.16019961
1.3404106 1.934366 0.46907222 -0.32399198 0.046787083 -0.07406247 -0.11680002 -0.28878918
1.8298821 1.8633542 -0.09544706 1.3209403 -1.3092018 -0.20814149 0.07272336 -0.6997546
0.079630256 -0.045208927 -1.6305492 -0.15080231 -0.37346685 -0.0054964423 -0.9660069 0.14255834
-0.84790444 -0.16160798 1.6011035 -0.4045676 0.82629293 -0.13393652 -0.13443011 -0.6646231
1.3219736 0.021275684 -0.33123675 -0.16763118 0.20590538 -0.8794075 -1.3332672 1.1073947
0.6776886 1.1231402 -0.9250977 -0.35157654 -0.3237962 -0.13069364 -1.4335604 1.5011506
0.06946537 1.2824934 -0.24120703 -0.9579247 1.0038323 -0.056315877 1.097603 0.71882284
-0.084753126 0.19304106 0.40308064 -1.1279387 -0.694577 -1.5776482 0.0007921457 -1.1666192
1.6597844 -0.58095574 -0.8388482 -0.7357701 -0.5714971 -1.0739396 -1.507992 -0.0390553
0.66840136 1.122114 -0.06360092 0.028133124 -0.8448622 -0.11397791 -1.1861905 -0.6508838
-1.2184914 -0.28066453 -0.9873035 1.6627605 -0.2997918 0.76612353 3.036501 -0.05099556
-0.025782585 -0.5066363 -0.64990354 -0.8418819 -0.26349002 -0.1660521 2.2067542 -0.8515084

model/batch_normalization_22/FusedBatchNormV3 f4 [216]
00000000: c077 3ebf 7172 573f ac75 23be 9e22 5abf
00000010: 039d 9e3f 9a82 853f d2ce 0341 f0c7 103f
00000020: 9e07 58be f40f 933f ce45 43bf 1a76 1cbf
00000030: 37f2 6cbf 5970 efbe 76ff 0ac0 20f8 a63d
00000040: 3fa2 673f 10f4 063f 7062 b63f 3598 0340
00000050: 58a7 abbe 443a 9c3e a1a1 dcbe 0708 efbe
00000060: 7c18 96be 253e cfbe 9c64 fdbe d829 1f40
00000070: 5a31 98bf 66b1 d0bf d436 9e3e 7bfc ee3f
00000080: 92d9 793f 6fa3 0cc0 cb4d a6be d943 233f
00000090: a063 18be b0ba 92be d66e 06be 9553 de3e
000000a0: 70f4 7dbd 24cb bb3f 6a26 e23f 7b91 6140
000000b0: 342c 68bf a172 1f40 932c 93bf 5869 2640
000000c0: b288 b23f dc39 3b40 0bab d5be 72dc 52be
000000d0: 89d8 05bf ed06 cfbd fdc3 41bf ce73 9abf
000000e0: d840 613e 0048 1eb9 567a 67bf 897c 8dbf
000000f0: 7171 e93f 0a40 8b3f c831 d1be 99d4 d5be
00000100: e3d1 a23f 2ec3 973f b4a7 a03f 0a9f f53f
00000110: c3da 9c3e fe51 c2be cad7 ddbf e236 e03d
00000120: 94d1 b6bf cfda 1cc0 8730 843e b27b 523e
00000130: 2660 82bf 1c3d fcbe 821b d3be aac3 9dbe
00000140: 5e45 abbf 1806 a3be 0767 ec40 9a7b 64bf
00000150: 2e6d 32be d402 e2bf 92ef 0f40 243d 813d
00000160: 6aac 78bf 60c8 6abc c6f1 b2bf 2c46 723f
00000170: da6b 4a3f a4d5 7240 eaa1 df3f 2ec8 edbe
00000180: 6084 703c 9720 c8be d588 16bf 9745 e940
00000190: d6a9 07bf 8658 e23f 996b 5c3f 1c58 efbe
000001a0: 24b6 ef3f 403a f6bd 9b42 babf 5ea0 1bc0
000001b0: b058 7a40 0253 bf3f fe6a 17be c027 b9bd
000001c0: d07c f0bf a4ea 2c3f 32fc a7bf 241e 6ebe
000001d0: 74d9 9c3f d26e fa3e be14 ee3d d6ff 9cbf
000001e0: a2f9 ebbf 706d c3be 9707 713f 3133 b2be
000001f0: 5f28 bc3f 505a 7b3e bec7 cc3f d0cc 09bf
00000200: 6c4a b33f 6074 c63f 9005 e03d d056 b3bf
00000210: 2d95 4bbf d0b6 5a3d a3a4 d7be 16dc 713e
00000220: 33b6 08bf 3bbe ed3f 7008 e9bc c4ee 233e
00000230: 2e54 b2be 58b0 41be 91a8 0640 9f8b 0e3f
00000240: a465 27bf 724e d63f 6084 2640 22e1 d43f
00000250: 90c3 e6bd c6e0 6fbf 3020 8abe 347d 493e
00000260: 315c 3a40 89d7 463f 42ae ddbf 9002 3240
00000270: 093c 85bf 146d ebbd 447a e2be 1745 92bf
00000280: 1b4e cbbe af04 d43f 2dfc 32bf e7b6 31be
00000290: 5bd1 5bbe ff40 a5bf 0c6a 0c40 b08e bb3f
000002a0: cc92 1ebd 055d 8fbe fe88 453f c605 323f
000002b0: 4c58 0940 c44c 70be 284a 6abf 6c35 8ebf
000002c0: b46e 84bf 193f 743f 9a26 e63e e88a 13bc
000002d0: 7c73 3540 5fdf 0640 26eb 78bf 2280 5d3f
000002e0: 276a 6ac0 eedd 8ebf a405 b7bf 0763 cd3f
000002f0: 6cbf bc3f 1150 ff3f d7e5 50be de78 f2be
00000300: 7a30 a9bf b04a f4bf afe9 673e 8275 cfbf
00000310: 48e4 4a3e defd 3ebf f896 2a40 8a58 75bf
00000320: 61d2 db3f 0cf4 9ebf c365 a6be c3d6 183f
00000330: 00b2 1d3c 58e5 24bf 5452 153d 01f2 42bf
00000340: adf3 0040 c50d d5be 6c49 ac3f 44df 0040
00000350: 20d3 cf3f 90eb 14be 2ab8 833f f260 62c0
-0.74401474 0.84159 -0.15962857 -0.8520907 1.2391666 1.0430481 8.237993 0.5655508
-0.21096656 1.1489244 -0.7627839 -0.6111771 -0.9255709 -0.46765402 -2.171842 0.08152795
0.9048194 0.5271616 1.4248791 2.056165 -0.3352611 0.30513203 -0.43092063 -0.46685812
-0.29315555 -0.404771 -0.4949082 2.486929 -1.1890061 -1.6304138 0.30901206 1.8670801
0.9759761 -2.1974752 -0.32481226 0.637754 -0.14881754 -0.28658056 -0.13128218 0.43423143
-0.062000692 1.4671369 1.7667973 3.5245044 -0.9069245 2.4913714 -1.1497978 2.6001797
1.3947966 2.9254065 -0.41732058 -0.20591906 -0.5228353 -0.10108743 -0.7568968 -1.2066591
0.21997392 -0.00015094876 -0.90421045 -1.105363 1.8237745 1.0878918 -0.40858293 -0.41763762
1.2720302 1.1856439 1.2551179 1.918916 0.30635652 -0.3795318 -1.7331479 0.10947968
-1.4282708 -2.450855 0.25818273 0.20554999 -1.0185592 -0.49265373 -0.41231924 -0.30813342
-1.3380544 -0.31840587 7.3875766 -0.892511 -0.17424461 -1.7657113 2.2489972 0.0631049
-0.97138083 -0.01433 -1.3980033 0.94638324 0.7907082 3.7942896 1.7471287 -0.46441787
0.014679998 -0.39087364 -0.5880254 7.289745 -0.52993524 1.7683265 0.8610168 -0.4674691
1.872746 -0.12022829 -1.4551576 -2.431663 3.911663 1.4947207 -0.14786908 -0.09040785
-1.878809 0.67545533 -1.3123839 -0.23253685 1.2253861 0.48912674 0.1162505 -1.2265575
-1.8435557 -0.38169432 0.94152206 -0.3480468 1.469982 0.2454617 1.5998456 -0.53828144
1.4007087 1.5504265 0.10938561 -1.4010868 -0.795245 0.053397 -0.42117795 0.23619112
-0.53403014 1.8573679 -0.028446406 0.1600905 -0.3482985 -0.18914926 2.1040385 0.55681795
-0.65389466 1.674269 2.6018295 1.6631205 -0.11267769 -0.9370235 -0.26977682 0.19676667
2.911877 0.7767263 -1.7318804 2.7814064 -1.0408946 -0.114954144 -0.44233906 -1.1427335
-0.39708027 1.6563929 -0.6991604 -0.17354928 -0.21466582 -1.291046 2.1939726 1.465292
-0.038714215 -0.28000656 0.7716216 0.6954006 2.1460142 -0.23466784 -0.91519403 -1.1110053
-1.0346284 0.9540878 0.44951326 -0.009005286 2.8351736 2.1073835 -0.9723381 0.8652364
-3.662729 -1.1161478 -1.4298596 1.6045846 1.4745917 1.9946309 -0.20400177 -0.4735784
-1.3217919 -1.9085293 0.22647737 -1.6207736 0.19813645 -0.7460612 2.6654644 -0.95838225
1.7173578 -1.2418227 -0.32499513 0.597027 0.009624958 -0.6441245 0.036455467 -0.7615052
2.0148728 -0.41612068 1.3459907 2.013627 1.6236305 -0.14542985 1.0290577 -3.537167

model/batch_normalization_25/FusedBatchNormV3 f4 [264]
00000000: b667 dcbf e8aa b43f 0a8b 8f3f 93a6 54bf
00000010: b2f8 57bf df31 31bf 6d38 cc3f 6cbd 933f
00000020: 2519 d7be 480e a53e e8e8 313f f634 09bf
00000030: 703b 1ebe f854 bbbf 005c 013e 4c05 96bf
00000040: 2183 f8be b5a1 0540 3435 9ebc 38a9 033e
00000050: 5c98 0c3e 94e7 6f3e 984d ef3f f14c 0cbf
00000060: 4061 823f 0208 35bf 0aa5 0141 4a60 35bd
00000070: 5f34 963f b20e 323d 0933 163f 5673 6ebe
00000080: fa34 2e3f 3777 fdbe 2573 0f40 9700 31bf
00000090: daba d93f a324 87bf c71a a7be 3ba9 48bf
000000a0: ff27 93bf 7263 d43f 3901 14bf ba1e 763f
000000b0: bdd7 b43f 5064 e5be 4868 55bf 37f2 5c3f
000000c0: 000b 49bf d4ad 4ebf fd11 1bbf c992 dbbe
000000d0: 5fdd a1be faa0 243f e47c aa3f 14c1 a2bf
000000e0: 1e4a d23f 9297 603f b453 0a3f c07c 9e3d
000000f0: 7dc5 90bf 4274 bebf c5ef 983d 64d3 58bf
00000100: a6dd 1840 d5a0 b63f fde6 4cbf 3217 99be
00000110: bcba 1f3e b525 72be aace e1be 951d 823f
00000120: 0cd8 e6be f1cf cabf faae b23f 7824 5cbe
00000130: 5c96 a9bf c410 11be 3e47 8cbc 10c3 13bf
00000140: ce9a 86bf 2cec 2f3e f82a 34bf 6c87 a63f
00000150: 3bea 523f e046 2abe 796f 1bbf c548 f33e
00000160: 38ed c33f 842f 39bf e7ca 96bd 2995 903f
00000170: 4719 05bf f099 cebe 3234 77bf ad13 73bf
00000180: aadd 1dbe b271 45bf ac98 f7be b547 1cbf
00000190: 0eaa 57bf e589 b03f 0062 b1bf c360 3cbf
000001a0: 542e 1540 75b4 76bf a8c1 adbe 73e9 3abe
000001b0: 062f a73f 2d6c 07bc 5b2d af3e 5e68 98bf
000001c0: f56c a03e c440 b1be 1297 8abe aedf c9be
000001d0: 8238 debe 6012 c63d 86be 75be a409 a6be
000001e0: f602 9dbf 24b6 fdbe b613 1940 7cfe 30bf
000001f0: 1266 ae3f 4777 df3f 44de afbf 3413 ed3f
00000200: 1059 0abd ee6e 4dbf 32f2 39be d3a9 4e3f
00000210: 8b1d 37be d2e8 d1bd cc29 dd3f 8a37 57bf
00000220: 9273 d5be b122 323f 62f4 fc3f 4fe2 e1bf
00000230: d842 eabe a008 98be ffb9 96bf bcd4 f9be
00000240: de4c ac3f 4767 b13e 645a 243e a9eb f13f
00000250: 40f3 f4bd 5361 cd3f 7ffa c3be 8b04 b0be
00000260: fc65 6bbe 7076 3bbe ec4a 3cbe afc7 c53f
00000270: 92d2 353f a82a d63f e053 86bf db36 74be
00000280: 0e4c 103f 2b19 30bf 8ca1 32bf 45c5 39bf
00000290: 6067 18bd 4b01 203f 446d 023f 3402 f43f
000002a0: 30ac 013f 0a64 86bf 209b a83f edb5 833f
000002b0: fb92 173f 9187 87be 0ca0 9d3f 508e 9a3f
000002c0: d4e7 16bf d387 903f c296 3dbe ef75 ce3f
000002d0: a60a 70bf dc51 d03f 2663 59bf 7cb9 f63e
000002e0: ec05 67bf 5e10 1040 b08c f4bc aa33 93bf
000002f0: b3d8 7cbf 04ca 1fbe 3374 0640 7880 4940
00000300: c8c5 0540 bc6e 2440 4457 993f f504 7fbf
00000310: b9c7 1dbf 14d8 56bf 9901 983f 9f50 a53f
00000320: 181b babe 2271 cc3e 64e1 3bbf 7217 9a3f
00000330: 535c acbe 6ccd a83f 11ba f63f 592c dfbf
00000340: e199 a9bd 776d 96be 7e8d 81bf 80a5 c8bc
00000350: 1ff9 8f3e 43da 10bf 0b63 0bbe eed1 a53f
00000360: cafe 43be 0f4e c33f 3e86 c9bf 5aa8 61bf
00000370: 1777 80be 8a50 1c3f 904e de40 c6d0 393e
00000380: 7d6b 9a3f 2f3a 2bbf 275e 013f 8407 753f
00000390: 2897 98be 4911 1ebe d233 2e3f 0b03 0040
000003a0: bae0 06bf 05f1 c9bf 857a 4ebf 6345 1fbf
000003b0: 2eac 443f 444b 1a3f b25e 85bf b48e 1abf
000003c0: a8cd 8cbf 1ac1 fbbe 37cc 8e3f 3cb0 8cbf
000003d0: f349 813f 8ac9 dabf af2f 62bf 84c3 6dbe
000003e0: a2dc a8be d4ef a3bf a41d fabd 6d28 a23f
000003f0: 063e 26be 604e b63c 9601 3a3f 9e49 e23f
-1.721915 1.4114656 1.1214306 -0.8306667 -0.84363854 -0.6921672 1.595472 1.1542182
-0.4201137 0.32237458 0.6949601 -0.53596437 -0.15452361 -1.4635305 0.12632751 -1.1720366
-0.48537543 2.0879948 -0.019312479 0.1285752 0.13729995 0.23428184 1.8695555 -0.54804903
1.0185928 -0.70715344 8.102793 -0.04428128 1.1734732 0.043471046 0.58671623 -0.23286185
0.68049586 -0.49505016 2.2414029 -0.69141525 1.7010148 -1.0558056 -0.32637617 -0.78383225
-1.1496581 1.6592848 -0.57814366 0.96140635 1.4128338 -0.44803095 -0.83362246 0.8630709
-0.7853241 -0.8073399 -0.6057432 -0.42885426 -0.31614205 0.6430813 1.3319364 -1.2715173
1.6428869 0.8773128 0.5403397 0.07738638 -1.1310269 -1.4879229 0.074676074 -0.84697556
2.3885283 1.4267832 -0.8003996 -0.2990051 0.15598577 -0.23647197 -0.44102985 1.0165278
-0.45086706 -1.5844709 1.3959649 -0.21498287 -1.3249011 -0.14166552 -0.017123815 -0.57719517
-1.0515993 0.17179936 -0.70378065 1.3010077 0.8238866 -0.16628599 -0.6071697 0.47516456
1.5306768 -0.7233813 -0.07362919 1.129552 -0.51991695 -0.4035182 -0.9656402 -0.949519
-0.1541659 -0.7712661 -0.48358667 -0.61046916 -0.8424386 1.3792082 -1.3858032 -0.73585147
2.3309526 -0.96369106 -0.3393681 -0.18253116 1.3061225 -0.008265537 0.3421429 -1.190685
0.31333128 -0.34619725 -0.27068383 -0.39428467 -0.43402487 0.096714735 -0.2399846 -0.3242923
-1.2266529 -0.49553025 2.391828 -0.6913831 1.3624899 1.7458276 -1.3739705 1.8521485
-0.033776343 -0.8024739 -0.18158796 0.8072788 -0.17882363 -0.10249485 1.727838 -0.8406912
-0.41689736 0.69584185 1.976208 -1.7647189 -0.45754123 -0.2969408 -1.1775512 -0.48795116
1.3460958 0.34649107 0.16050106 1.8900043 -0.11960459 1.6045326 -0.3827705 -0.34378466
-0.22988123 -0.18306899 -0.18387955 1.5451564 0.7102443 1.6731768 -1.0494347 -0.2384905
0.5636605 -0.68788403 -0.6977775 -0.72566634 -0.03720796 0.6250197 0.50947976 1.9063172
0.5065336 -1.049928 1.317234 1.0289894 0.5920865 -0.26470616 1.2314467 1.207468
-0.5894749 1.129145 -0.18514541 1.612974 -0.9376625 1.6274981 -0.84916914 0.48188388
-0.9024341 2.250999 -0.029852241 -1.1500142 -0.98768157 -0.15604407 2.1008422 3.148466
2.0901966 2.5692587 1.1979756 -0.9961694 -0.6163288 -0.8392346 1.1875488 1.2915229
-0.36348796 0.39930063 -0.73390794 1.2038405 -0.33664188 1.318769 1.9275533 -1.7435409
-0.08281303 -0.2938039 -1.0121305 -0.024492979 0.28119752 -0.5658304 -0.13612 1.295469
-0.19140163 1.5258197 -1.5744092 -0.8814751 -0.25090858 0.6106039 6.94709 0.18146047
1.2064053 -0.66885656 0.5053429 0.9571459 -0.29802823 -0.15436281 0.6804782 2.0001857
-0.52686656 -1.5776678 -0.806557 -0.6221525 0.76825225 0.60271096 -1.0419524 -0.60374
-1.1000261 -0.49170762 1.1156071 -1.0991282 1.0100693 -1.7092755 -0.8835401 -0.23219115
-0.3298083 -1.2807565 -0.12212685 1.2668587 -0.16234598 0.022254169 0.7265867 1.7678716

model/batch_normalization_28/FusedBatchNormV3 f4 [264]
00000000: 48e0 00bd e689 9b3d dae0 00bf 7408 613e
00000010: b810 1140 7452 7bbf 1c8b 06bd 3512 0fbf
00000020: 1aaf 863f e0d3 a7bf 92a5 21bf 15dd 903f
00000030: 5a11 dabe 2dfd 623e b4be 053e 7010 bbbe
00000040: 6874 00be 1d15 55bf dcfb 08bf 1cff 2bbf
00000050: 1546 1840 e466 183f f4ac 4c3f c1cc 523f
00000060: a56d ab3f 3a77 b4be a283 31bf 7871 413f
00000070: 7220 ccbf c47f 0840 1b59 aa3f 51e3 1abf
00000080: 28d1 853f 3e72 ecbe 280a 6a3f 5510 a0bf
00000090: 2266 c9be b7d0 8a3f 1a52 dfbf ca95 b1bf
000000a0: 78e1 cd3f 6cd4 e53c 7a7d 91be aaea 32bf
000000b0: bd0b cfbf b1fb 08bf b2e6 51bf af08 7fbf
000000c0: 2c46 163e 2d8f 1640 6678 a6bf 9c97 35be
000000d0: 5cb8 30bf f40a 513e fa78 0f3f 0271 f63f
000000e0: 136a 403f 278a 6e3f 7dac cb3f 6a29 a33f
000000f0: 3a6c f13f 3fcd 89be 5a30 0840 ca71 acbf
00000100: a33a 88bf 0e9c 273f df85 6140 0574 7f3f
00000110: 79f8 afbe 005a e0ba d96f 26bf 6022 4bbe
00000120: 3816 4fbe 1eae e2bf aa0b b63f ca9a 5bbf
00000130: 5698 79bf 6322 1e3f b463 19bf 883a b2bf
00000140: fdae e8be 7420 babe f883 a13f dd09 01c0
00000150: 6d97 01bf efee 92be 219b ebbf ee36 3dbf
00000160: 9036 8940 b6dc 1d3f dc9d 02bf b6ff b3bf
00000170: 1da9 0dbe 1b33 63bf 5aa1 2cbe 8c4a e13f
00000180: 16b4 763e 9458 883e 59fc d13e 2ae6 e8bf
00000190: 0183 9e3f 7be9 3240 9130 b140 1533 b03f
000001a0: 5c2e 27c0 eaa1 dfbf 1a41 78bf 563c 2340
000001b0: 2890 1f40 9619 5ebf 05f4 aa3f 4282 8abf
000001c0: 3fd4 f23f 3847 e3be 4ebf fd3f c3c0 4cc0
000001d0: 2004 2bbc 54d3 eebd fe40 71bf c8cd a8bf
000001e0: bc80 483f fe97 b13f ec2f 193f 5a86 2b3e
000001f0: 4ce6 30bf 157d 2940 38d4 673d caef 90bf
00000200: 2b72 c43f 515d 1140 00f5 993f 4b77 cb3f
00000210: 88b1 2040 d979 b33f fe77 683f 23ef f33f
00000220: fb63 d6bf 3476 e63e 0053 003f 41f1 963f
00000230: acff 72bf 1429 3f3f 8d40 58bf 1605 c0bf
00000240: 8487 e93f b223 6cbf 5862 a8bd fd83 f6be
00000250: 46aa 323f 1abf e73f 7ce0 56bd ceac 1940
00000260: 8967 bebf b458 3e3e d082 4a3f 367d 913f
00000270: fb83 4540 03b1 2d3e b592 973f 109c 71bf
00000280: 3467 e93f a48f 043f 668f 9dbe b4d7 9f3e
00000290: 616c c33e f50b f93f 0dcd 02be 00a3 28bd
000002a0: 8b6e 4abe 003c 4bbc 5484 0940 d31e 683f
000002b0: 385e 6ac0 a87c a03e 3a12 4f3e 389d b53f
000002c0: b80a 1f40 3629 cfbe cdbf 7c3f b0ac 8ebf
000002d0: b0e7 91bf 9649 b73f 2052 8dbd 67fe d93f
000002e0: 0e53 ef3f 92d8 0d3f 5411 5bbe 517b acbe
000002f0: e471 ebbf b826 e4bd 425b c93f 190e 173f
00000300: aae4 86bf 009f 913f 027b 25bf 40ee 7aba
00000310: 69f0 d73f 3b3b 8dbe 6430 a5bf 9887 0b40
00000320: 47b4 aebf a207 f43f 8c27 a2bf 18aa efbc
00000330: 186d c83e 8215 f6be 7e7a 873f 007e bf3e
00000340: 3d42 4cbe 69a7 d33f b264 be3f 09a2 a0bf
00000350: 4a07 2640 4b9c bf40 c9d2 22bf a09a f3bc
00000360: e8c5 163d 2014 7c3c f2e7 7c3f eb86 c73f
00000370: d102 82bf 9101 0fc0 d78d 8cbf 800f efbe
00000380: a5c5 00bf f29f a9bf 6228 cabf c558 1abf
00000390: 09b9 17c0 9c07 c03f 661f d2bf aab6 0f3e
000003a0: a618 8c3f f243 153f 4a8f bfbe 7f4d 043f
000003b0: 4c0b 19be 47f7 21bf 4ec4 3f3e 1831 433f
000003c0: 2d14 24bf f28a a13f 3678 6a3e 70c1 303f
000003d0: bc13 d43f e6d0 e73f 16f2 8cbe 5e42 ac3f
000003e0: eab5 7cbf 2aba 52bf 60c9 f8bd 8092 31bc
000003f0: fdce 00c0 ef39 81bf 38bb 48bf 1292 5b40
-0.03146389 0.075946614 -0.50343096 0.21975881 2.2666454 -0.9817269 -0.03284751 -0.55887157
1.0522187 -1.3111534 -0.63143265 1.1317469 -0.42591363 0.22166891 0.13061029 -0.36535978
-0.12544405 -0.8323534 -0.53509307 -0.6718614 2.3792775 0.59532 0.79951406 0.8234368
1.3392836 -0.35247213 -0.6934148 0.75563765 -1.5947402 2.1327982 1.3308443 -0.6050311
1.0454454 -0.4618091 0.9142175 -1.2504984 -0.39335734 1.0844945 -1.744693 -1.3873837
1.6084433 0.028055392 -0.28416044 -0.6988932 -1.6175457 -0.5350905 -0.8199264 -0.99622625
0.14675206 2.3524888 -1.3005493 -0.17733616 -0.6903131 0.20414335 0.5604397 1.9253237
0.75161856 0.93179554 1.5912014 1.2747014 1.8861153 -0.26914403 2.1279511 -1.3472226
-1.0642895 0.65472496 3.5237958 0.99786407 -0.34369257 -0.0017116666 -0.65014416 -0.19837332
-0.2022332 -1.7709386 1.422231 -0.85783064 -0.9749807 0.6177122 -0.5991776 -1.3924112
-0.45446005 -0.36352885 1.2618399 -2.016227 -0.5062168 -0.28697917 -1.8406717 -0.7391194
4.2879105 0.61664903 -0.51022124 -1.4062412 -0.13834043 -0.88749856 -0.16858426 1.7600875
0.24092135 0.2663008 0.41012838 -1.819524 1.2383729 2.7955005 5.5371785 1.3765589
-2.6122046 -1.7471287 -0.9697434 2.5505576 2.4931736 -0.8675779 1.3355719 -1.0821002
1.8971022 -0.44390273 1.9824007 -3.1992652 -0.010437995 -0.116614014 -0.94239795 -1.31878
0.78321433 1.3874509 0.5983875 0.1675047 -0.69101405 2.6482594 0.056598872 -1.1323178
1.5347341 2.2713206 1.2027893 1.589578 2.5108356 1.402156 0.90808094 1.9057354
-1.6749262 0.45012057 0.5012665 1.1792375 -0.94921374 0.74672055 -0.84473497 -1.5001552
1.8244481 -0.92241967 -0.082218826 -0.48147574 0.69791067 1.8105195 -0.05246018 2.4011722
-1.4875346 0.18588525 0.79105854 1.1366336 3.0861804 0.16962056 1.1841646 -0.9437876
1.823462 0.5178168 -0.30773467 0.31219256 0.38168624 1.9456774 -0.12773533 -0.041171074
-0.19768731 -0.012404442 2.1487017 0.90672034 -3.6620007 0.31345105 0.20221797 1.4188604
2.4850292 -0.4046113 0.98730165 -1.114645 -1.139883 1.4319332 -0.0690043 1.7030762
1.8697221 0.55408585 -0.21393329 -0.33687833 -1.8394132 -0.111401975 1.5730975 0.59005886
-1.0538533 1.1376648 -0.6464082 -0.0009572245 1.6870242 -0.27584252 -1.2905393 2.180151
-1.3648766 1.9064829 -1.2668319 -0.029255912 0.39145732 -0.48063284 1.0584257 0.37400818
-0.19947143 1.6535465 1.487448 -1.2549449 2.594195 5.9878287 -0.6360288 -0.029736817
0.03680983 0.015385658 0.9879142 1.5588049 -1.015711 -2.2344706 -1.0980786 -0.46691513
-0.5030158 -1.3251936 -1.5793574 -0.602917 -2.3706686 1.5002322 -1.6415832 0.14034525
1.0945022 0.583068 -0.37414008 0.5168075 -0.14945716 -0.6326794 0.18727228 0.76246786
-0.64093286 1.2620528 0.2289742 0.6904516 1.6568522 1.8110626 -0.27528447 1.3457754
-0.9871508 -0.82315314 -0.12147784 -0.010838151 -2.0126336 -1.0095805 -0.78410673 3.4307904

model/batch_normalization_31/FusedBatchNormV3 f4 [336]
00000000: 04f9 acbf c551 8b3e 32b3 25bf 6d79 4ebf
00000010: 25e6 4dbf cad9 05bf cce2 243f 620b 50bf
00000020: 40cc a7bf 2c2a 88bf 5355 04bf 9122 f4be
00000030: a086 2b3f 1c59 4ebf db3a 2a3e 1068 44bf
00000040: 7ae5 2f3f 48f6 c5bf 54dd 7b3e 1030 e0bf
00000050: 6a3e 643f f677 d4be dc16 203f b64c 03be
00000060: 238f 34bf 3bb4 a6bf 2ed4 11bf b40c 7abf
00000070: ae86 333f 146c 51bf 0c60 2840 8d1b 06bf
00000080: 3780 9d3e 71d2 34bf b13b 04bf 4018 aabe
00000090: 266b 8f3e 37a2 cd3f a5fe 02bf e422 293e
000000a0: 3bad fb3f 14d9 7fbe 06e9 1abf 3803 96be
000000b0: 61f5 9ebe 664e 8fbe 087a 143f 64c7 ca3f
000000c0: d184 c93f 2aa7 2b3f 24d1 9ebe 0bd7 8ebf
000000d0: b07f e43e 6c91 0340 7c0c aebf c78d 4dbe
000000e0: 6e1a d4bf 4064 253c ba06 b33f 87ca c2be
000000f0: 81c2 a2be 9122 52be 90db 25be c83d 633f
00000100: d637 6e3f 8e2c 9cbe 4b2d 853e 7e4e dfbd
00000110: cfb7 04be de5d 86bf 873f 2ebf 3cb0 d83f
00000120: fa0a a93f 9a1d a3bf c4ab 4ebf f4c8 bb3e
00000130: 820b ba3f a828 883f 1066 edbe 4d19 d8be
00000140: 295a 8cbf 607d 85be 5c82 e6bd 2431 843e
00000150: 2bf3 d6be d055 29bf db51 b83e 1266 743f
00000160: 9d8c c73d 242e 80bd 92c0 ebbe cb0a 2a3f
00000170: 8ecf 9fbf d590 46bf bced 37bf a61e 76bf
00000180: 1c87 4a3f eb72 363f ee7c 4ebf 82c8 3abf
00000190: 5c62 90be 4349 f33f b186 773e 84b1 8e3f
000001a0: 188d b3be 3139 0740 fe1e 9b3d bd7f b3bf
000001b0: c9aa 203e 29c5 9bbf 8a94 09bf 82a3 f33e
000001c0: 1a95 36bf 41b7 6fbf 3df1 b93f 0383 5a3e
000001d0: f74b d4be 3619 17bf de3d 09bf 2c6f 4f3f
000001e0: dda7 3abf d46e 78bf 7e3f 2640 78b0 8f3f
000001f0: 1e27 ffbe 513d 01bf 1443 cb3e c113 0bbf
00000200: 344d 63bf ca39 a0bf 6b2e d1bf c20a b33f
00000210: d6b1 943f c66d f4be da74 30be 63a8 1dbe
00000220: ba7f 063e a8fc 87bf 6074 fa3f c97a a9be
00000230: 4961 2dbf ce95 a6bf 15dc 9c3e b65c 08bf
00000240: 6ee9 bcbd 4013 90bf eca0 ea3f 550d 903f
00000250: 8afe 813f dab4 9ebe dda2 213f 9d97 6f3d
00000260: a301 c5be 7482 e6be a894 693f a13a a93f
00000270: 7596 4f3f fbc7 5cbf 4ef2 bd3f 02f2 f73e
00000280: 310b 1bbf b74c adbe e822 5dbf f409 053e
00000290: 8e37 fe3f 91cd 02bf d878 243e 7a36 6ebe
000002a0: 972b 7abf a197 0f3f 943d 88bf d24f 623f
000002b0: 1a60 6b3f f848 6f3d 90f9 ecbc a786 433f
000002c0: 0c3c 99bf b4d6 973f 1df6 bd3e 68e6 8dbe
000002d0: 602b 5d3f ba69 5bbd 57ba f63e 5710 993f
000002e0: f742 4b3f 5c1a 25bf 1438 503d 1eab 973e
000002f0: ea4b b73f 276d 8b3f a620 27be 9c9d 8fbe
00000300: 6949 9abe 9236 ea3f 8cb9 88be fe4d d5be
00000310: ae82 713f bea2 2f3f 110c a83f 9c04 b3be
00000320: 4809 213f 0087 6fbf 1739 3f3f 5d0f 583f
00000330: 2af4 703f 4e56 e93f 07a0 74bf e382 2cbf
00000340: 78b5 bebe fe0a f2be 3775 a63f a159 0cbf
00000350: 8a8d b53f 03fa c5be 3cbd 56be f413 be3e
00000360: 9afa 823f 2025 e0bf 0a71 21bf 595c 423f
00000370: cf94 61bf 6d29 14bf 0890 70be 5575 06bf
00000380: 98b4 093e 0c64 0340 dcf4 ec3e 7a74 aebe
00000390: 53de dd3f 97fe 0a40 214b 073f 0016 bdbd
000003a0: e224 a2bf e1a7 9cbf 0aa1 38bf 693b 0bbf
000003b0: dced 1040 88cb 1140 34d1 9abd f69f bcbe
000003c0: ec34 6dbf c4c2 43bf 8829 dfbd 3b41 503e
000003d0: 542f d23d e0e6 0dbf 5a86 af3f f629 e33f
000003e0: 729a 54bf 806e 3fbd 7e1c d0be 7b64 203f
000003f0: 3c5e 943f c65a afbe 03c4 c73f c1ce 34bf
-1.3513494 0.27210823 -0.64726555 -0.8065403 -0.804293 -0.52285445 0.64408565 -0.8126737
-1.3109207 -1.063787 -0.51692694 -0.47682622 0.67002296 -0.8060472 0.16624014 -0.76721287
0.6870953 -1.5465784 0.24596149 -1.7514668 0.89157736 -0.41497773 0.6253488 -0.12822232
-0.7053091 -1.3023752 -0.56964386 -0.97675633 0.7012738 -0.8180554 2.6308622 -0.5238579
0.30761883 -0.7063361 -0.5165358 -0.33221626 0.28011435 1.6065129 -0.51169807 0.16517216
1.9662241 -0.24985152 -0.60511816 -0.2929933 -0.31046584 -0.279895 0.57998705 1.5842099
1.5743657 0.6705195 -0.31018937 -1.1159376 0.44628668 2.0557508 -1.359756 -0.20073615
-1.6570566 0.010094702 1.3986428 -0.3804514 -0.3178902 -0.20520999 -0.16197038 0.88766146
0.9305395 -0.30502743 0.26011118 -0.10903643 -0.12960742 -1.0497396 -0.68065685 1.6928782
1.3206475 -1.2743409 -0.80730844 0.36676753 1.4534762 1.0637407 -0.4636693 -0.42206803
-1.0965015 -0.26072216 -0.11255333 0.2581874 -0.41982397 -0.66146564 0.3599995 0.95468247
0.09743617 -0.062588006 -0.46045357 0.6642272 -1.2485216 -0.77564746 -0.7184713 -0.96140516
0.7911241 0.712691 -0.8065938 -0.729622 -0.28200042 1.9006733 0.24172474 1.1147923
-0.35068583 2.1128657 0.07574271 -1.4023358 0.1569015 -1.2169544 -0.5374228 0.47585684
-0.7132126 -0.93639 1.4526745 0.2133904 -0.41464207 -0.59022844 -0.53610027 0.8102901
-0.7291239 -0.9704411 2.5976253 1.1225729 -0.49834532 -0.50484186 0.39699614 -0.5432702
-0.8878968 -1.2517636 -1.6342291 1.3987658 1.1616771 -0.4774 -0.17232075 -0.15396266
0.13134661 -1.062398 1.9566765 -0.3310149 -0.6772657 -1.3014467 0.3063666 -0.53266466
-0.09224211 -1.1255875 1.833036 1.1254069 1.0155804 -0.30997354 0.63139135 0.0584942
-0.3847781 -0.45021403 0.91242456 1.3221017 0.81088954 -0.86242646 1.483957 0.48426825
-0.6056395 -0.3384759 -0.8638139 0.12992078 1.9860704 -0.5109492 0.16061723 -0.23262969
-0.9772276 0.5609074 -1.0643792 0.88403046 0.91943514 0.058419198 -0.028927594 0.7637734
-1.197145 1.1862397 0.37101832 -0.2771485 0.8639431 -0.053567626 0.4818904 1.1958112
0.79399055 -0.64493346 0.05083473 0.2962274 1.4320042 1.0892686 -0.16321048 -0.28049934
-0.30134133 1.8297904 -0.2670406 -0.41661066 0.94340026 0.686077 1.3128682 -0.34964454
0.6290479 -0.9356537 0.7469649 0.8439844 0.94122565 1.8229463 -0.9555668 -0.6738722
-0.37247825 -0.4727401 1.3004521 -0.5482426 1.4183819 -0.38667306 -0.20970625 0.37124598
1.0232728 -1.751133 -0.6306311 0.7592216 -0.8811769 -0.5787571 -0.23492444 -0.52522784
0.13447797 2.0529814 0.46280563 -0.3407324 1.7333473 2.171789 0.5284901 -0.09232712
-1.2667506 -1.2238733 -0.72120726 -0.5438753 2.2645178 2.2780476 -0.075594336 -0.3684079
-0.9265888 -0.76469064 -0.10896593 0.20337383 0.102629334 -0.5543041 1.3712876 1.774718
-0.83048165 -0.04673624 -0.40646738 0.6265332 1.1591258 -0.34248942 1.5606693 -0.7062798
